{"format": "layers-model", "generatedBy": "keras v2.0.3", "convertedBy": "TensorFlow.js Converter v1.0.1", "modelTopology": {"keras_version": "2.0.3", "backend": "tensorflow", "model_config": {"class_name": "Model", "config": {"name": "model_9", "layers": [{"name": "input_5", "class_name": "InputLayer", "config": {"batch_input_shape": [null, null, null, 3], "dtype": "float32", "sparse": false, "name": "input_5"}, "inbound_nodes": []}, {"name": "zero_padding2d_3", "class_name": "ZeroPadding2D", "config": {"name": "zero_padding2d_3", "trainable": true, "padding": [[3, 3], [3, 3]], "data_format": "channels_last"}, "inbound_nodes": [[["input_5", 0, 0, {}]]]}, {"name": "conv1", "class_name": "Conv2D", "config": {"name": "conv1", "trainable": true, "filters": 64, "kernel_size": [7, 7], "strides": [2, 2], "padding": "valid", "data_format": "channels_last", "dilation_rate": [1, 1], "activation": "linear", "use_bias": true, "kernel_initializer": {"class_name": "VarianceScaling", "config": {"scale": 1.0, "mode": "fan_avg", "distribution": "uniform", "seed": null}}, "bias_initializer": {"class_name": "Zeros", "config": {}}, "kernel_regularizer": null, "bias_regularizer": null, "activity_regularizer": null, "kernel_constraint": null, "bias_constraint": null}, "inbound_nodes": [[["zero_padding2d_3", 0, 0, {}]]]}, {"name": "bn_conv1", "class_name": "FixedBatchNormalization", "config": {"name": "bn_conv1", "trainable": true, "epsilon": 0.001, "axis": 3, "gamma_regularizer": null, "beta_regularizer": null}, "inbound_nodes": [[["conv1", 0, 0, {}]]]}, {"name": "activation_99", "class_name": "Activation", "config": {"name": "activation_99", "trainable": true, "activation": "relu"}, "inbound_nodes": [[["bn_conv1", 0, 0, {}]]]}, {"name": "max_pooling2d_3", "class_name": "MaxPooling2D", "config": {"name": "max_pooling2d_3", "trainable": true, "pool_size": [3, 3], "padding": "valid", "strides": [2, 2], "data_format": "channels_last"}, "inbound_nodes": [[["activation_99", 0, 0, {}]]]}, {"name": "res2a_branch2a", "class_name": "Conv2D", "config": {"name": "res2a_branch2a", "trainable": true, "filters": 64, "kernel_size": [1, 1], "strides": [1, 1], "padding": "valid", "data_format": "channels_last", "dilation_rate": [1, 1], "activation": "linear", "use_bias": true, "kernel_initializer": {"class_name": "VarianceScaling", "config": {"scale": 1.0, "mode": "fan_avg", "distribution": "uniform", "seed": null}}, "bias_initializer": {"class_name": "Zeros", "config": {}}, "kernel_regularizer": null, "bias_regularizer": null, "activity_regularizer": null, "kernel_constraint": null, "bias_constraint": null}, "inbound_nodes": [[["max_pooling2d_3", 0, 0, {}]]]}, {"name": "bn2a_branch2a", "class_name": "FixedBatchNormalization", "config": {"name": "bn2a_branch2a", "trainable": true, "epsilon": 0.001, "axis": 3, "gamma_regularizer": null, "beta_regularizer": null}, "inbound_nodes": [[["res2a_branch2a", 0, 0, {}]]]}, {"name": "activation_100", "class_name": "Activation", "config": {"name": "activation_100", "trainable": true, "activation": "relu"}, "inbound_nodes": [[["bn2a_branch2a", 0, 0, {}]]]}, {"name": "res2a_branch2b", "class_name": "Conv2D", "config": {"name": "res2a_branch2b", "trainable": true, "filters": 64, "kernel_size": [3, 3], "strides": [1, 1], "padding": "same", "data_format": "channels_last", "dilation_rate": [1, 1], "activation": "linear", "use_bias": true, "kernel_initializer": {"class_name": "VarianceScaling", "config": {"scale": 1.0, "mode": "fan_avg", "distribution": "uniform", "seed": null}}, "bias_initializer": {"class_name": "Zeros", "config": {}}, "kernel_regularizer": null, "bias_regularizer": null, "activity_regularizer": null, "kernel_constraint": null, "bias_constraint": null}, "inbound_nodes": [[["activation_100", 0, 0, {}]]]}, {"name": "bn2a_branch2b", "class_name": "FixedBatchNormalization", "config": {"name": "bn2a_branch2b", "trainable": true, "epsilon": 0.001, "axis": 3, "gamma_regularizer": null, "beta_regularizer": null}, "inbound_nodes": [[["res2a_branch2b", 0, 0, {}]]]}, {"name": "activation_101", "class_name": "Activation", "config": {"name": "activation_101", "trainable": true, "activation": "relu"}, "inbound_nodes": [[["bn2a_branch2b", 0, 0, {}]]]}, {"name": "res2a_branch2c", "class_name": "Conv2D", "config": {"name": "res2a_branch2c", "trainable": true, "filters": 256, "kernel_size": [1, 1], "strides": [1, 1], "padding": "valid", "data_format": "channels_last", "dilation_rate": [1, 1], "activation": "linear", "use_bias": true, "kernel_initializer": {"class_name": "VarianceScaling", "config": {"scale": 1.0, "mode": "fan_avg", "distribution": "uniform", "seed": null}}, "bias_initializer": {"class_name": "Zeros", "config": {}}, "kernel_regularizer": null, "bias_regularizer": null, "activity_regularizer": null, "kernel_constraint": null, "bias_constraint": null}, "inbound_nodes": [[["activation_101", 0, 0, {}]]]}, {"name": "res2a_branch1", "class_name": "Conv2D", "config": {"name": "res2a_branch1", "trainable": true, "filters": 256, "kernel_size": [1, 1], "strides": [1, 1], "padding": "valid", "data_format": "channels_last", "dilation_rate": [1, 1], "activation": "linear", "use_bias": true, "kernel_initializer": {"class_name": "VarianceScaling", "config": {"scale": 1.0, "mode": "fan_avg", "distribution": "uniform", "seed": null}}, "bias_initializer": {"class_name": "Zeros", "config": {}}, "kernel_regularizer": null, "bias_regularizer": null, "activity_regularizer": null, "kernel_constraint": null, "bias_constraint": null}, "inbound_nodes": [[["max_pooling2d_3", 0, 0, {}]]]}, {"name": "bn2a_branch2c", "class_name": "FixedBatchNormalization", "config": {"name": "bn2a_branch2c", "trainable": true, "epsilon": 0.001, "axis": 3, "gamma_regularizer": null, "beta_regularizer": null}, "inbound_nodes": [[["res2a_branch2c", 0, 0, {}]]]}, {"name": "bn2a_branch1", "class_name": "FixedBatchNormalization", "config": {"name": "bn2a_branch1", "trainable": true, "epsilon": 0.001, "axis": 3, "gamma_regularizer": null, "beta_regularizer": null}, "inbound_nodes": [[["res2a_branch1", 0, 0, {}]]]}, {"name": "add_33", "class_name": "Add", "config": {"name": "add_33", "trainable": true}, "inbound_nodes": [[["bn2a_branch2c", 0, 0, {}], ["bn2a_branch1", 0, 0, {}]]]}, {"name": "activation_102", "class_name": "Activation", "config": {"name": "activation_102", "trainable": true, "activation": "relu"}, "inbound_nodes": [[["add_33", 0, 0, {}]]]}, {"name": "res2b_branch2a", "class_name": "Conv2D", "config": {"name": "res2b_branch2a", "trainable": true, "filters": 64, "kernel_size": [1, 1], "strides": [1, 1], "padding": "valid", "data_format": "channels_last", "dilation_rate": [1, 1], "activation": "linear", "use_bias": true, "kernel_initializer": {"class_name": "VarianceScaling", "config": {"scale": 1.0, "mode": "fan_avg", "distribution": "uniform", "seed": null}}, "bias_initializer": {"class_name": "Zeros", "config": {}}, "kernel_regularizer": null, "bias_regularizer": null, "activity_regularizer": null, "kernel_constraint": null, "bias_constraint": null}, "inbound_nodes": [[["activation_102", 0, 0, {}]]]}, {"name": "bn2b_branch2a", "class_name": "FixedBatchNormalization", "config": {"name": "bn2b_branch2a", "trainable": true, "epsilon": 0.001, "axis": 3, "gamma_regularizer": null, "beta_regularizer": null}, "inbound_nodes": [[["res2b_branch2a", 0, 0, {}]]]}, {"name": "activation_103", "class_name": "Activation", "config": {"name": "activation_103", "trainable": true, "activation": "relu"}, "inbound_nodes": [[["bn2b_branch2a", 0, 0, {}]]]}, {"name": "res2b_branch2b", "class_name": "Conv2D", "config": {"name": "res2b_branch2b", "trainable": true, "filters": 64, "kernel_size": [3, 3], "strides": [1, 1], "padding": "same", "data_format": "channels_last", "dilation_rate": [1, 1], "activation": "linear", "use_bias": true, "kernel_initializer": {"class_name": "VarianceScaling", "config": {"scale": 1.0, "mode": "fan_avg", "distribution": "uniform", "seed": null}}, "bias_initializer": {"class_name": "Zeros", "config": {}}, "kernel_regularizer": null, "bias_regularizer": null, "activity_regularizer": null, "kernel_constraint": null, "bias_constraint": null}, "inbound_nodes": [[["activation_103", 0, 0, {}]]]}, {"name": "bn2b_branch2b", "class_name": "FixedBatchNormalization", "config": {"name": "bn2b_branch2b", "trainable": true, "epsilon": 0.001, "axis": 3, "gamma_regularizer": null, "beta_regularizer": null}, "inbound_nodes": [[["res2b_branch2b", 0, 0, {}]]]}, {"name": "activation_104", "class_name": "Activation", "config": {"name": "activation_104", "trainable": true, "activation": "relu"}, "inbound_nodes": [[["bn2b_branch2b", 0, 0, {}]]]}, {"name": "res2b_branch2c", "class_name": "Conv2D", "config": {"name": "res2b_branch2c", "trainable": true, "filters": 256, "kernel_size": [1, 1], "strides": [1, 1], "padding": "valid", "data_format": "channels_last", "dilation_rate": [1, 1], "activation": "linear", "use_bias": true, "kernel_initializer": {"class_name": "VarianceScaling", "config": {"scale": 1.0, "mode": "fan_avg", "distribution": "uniform", "seed": null}}, "bias_initializer": {"class_name": "Zeros", "config": {}}, "kernel_regularizer": null, "bias_regularizer": null, "activity_regularizer": null, "kernel_constraint": null, "bias_constraint": null}, "inbound_nodes": [[["activation_104", 0, 0, {}]]]}, {"name": "bn2b_branch2c", "class_name": "FixedBatchNormalization", "config": {"name": "bn2b_branch2c", "trainable": true, "epsilon": 0.001, "axis": 3, "gamma_regularizer": null, "beta_regularizer": null}, "inbound_nodes": [[["res2b_branch2c", 0, 0, {}]]]}, {"name": "add_34", "class_name": "Add", "config": {"name": "add_34", "trainable": true}, "inbound_nodes": [[["bn2b_branch2c", 0, 0, {}], ["activation_102", 0, 0, {}]]]}, {"name": "activation_105", "class_name": "Activation", "config": {"name": "activation_105", "trainable": true, "activation": "relu"}, "inbound_nodes": [[["add_34", 0, 0, {}]]]}, {"name": "res2c_branch2a", "class_name": "Conv2D", "config": {"name": "res2c_branch2a", "trainable": true, "filters": 64, "kernel_size": [1, 1], "strides": [1, 1], "padding": "valid", "data_format": "channels_last", "dilation_rate": [1, 1], "activation": "linear", "use_bias": true, "kernel_initializer": {"class_name": "VarianceScaling", "config": {"scale": 1.0, "mode": "fan_avg", "distribution": "uniform", "seed": null}}, "bias_initializer": {"class_name": "Zeros", "config": {}}, "kernel_regularizer": null, "bias_regularizer": null, "activity_regularizer": null, "kernel_constraint": null, "bias_constraint": null}, "inbound_nodes": [[["activation_105", 0, 0, {}]]]}, {"name": "bn2c_branch2a", "class_name": "FixedBatchNormalization", "config": {"name": "bn2c_branch2a", "trainable": true, "epsilon": 0.001, "axis": 3, "gamma_regularizer": null, "beta_regularizer": null}, "inbound_nodes": [[["res2c_branch2a", 0, 0, {}]]]}, {"name": "activation_106", "class_name": "Activation", "config": {"name": "activation_106", "trainable": true, "activation": "relu"}, "inbound_nodes": [[["bn2c_branch2a", 0, 0, {}]]]}, {"name": "res2c_branch2b", "class_name": "Conv2D", "config": {"name": "res2c_branch2b", "trainable": true, "filters": 64, "kernel_size": [3, 3], "strides": [1, 1], "padding": "same", "data_format": "channels_last", "dilation_rate": [1, 1], "activation": "linear", "use_bias": true, "kernel_initializer": {"class_name": "VarianceScaling", "config": {"scale": 1.0, "mode": "fan_avg", "distribution": "uniform", "seed": null}}, "bias_initializer": {"class_name": "Zeros", "config": {}}, "kernel_regularizer": null, "bias_regularizer": null, "activity_regularizer": null, "kernel_constraint": null, "bias_constraint": null}, "inbound_nodes": [[["activation_106", 0, 0, {}]]]}, {"name": "bn2c_branch2b", "class_name": "FixedBatchNormalization", "config": {"name": "bn2c_branch2b", "trainable": true, "epsilon": 0.001, "axis": 3, "gamma_regularizer": null, "beta_regularizer": null}, "inbound_nodes": [[["res2c_branch2b", 0, 0, {}]]]}, {"name": "activation_107", "class_name": "Activation", "config": {"name": "activation_107", "trainable": true, "activation": "relu"}, "inbound_nodes": [[["bn2c_branch2b", 0, 0, {}]]]}, {"name": "res2c_branch2c", "class_name": "Conv2D", "config": {"name": "res2c_branch2c", "trainable": true, "filters": 256, "kernel_size": [1, 1], "strides": [1, 1], "padding": "valid", "data_format": "channels_last", "dilation_rate": [1, 1], "activation": "linear", "use_bias": true, "kernel_initializer": {"class_name": "VarianceScaling", "config": {"scale": 1.0, "mode": "fan_avg", "distribution": "uniform", "seed": null}}, "bias_initializer": {"class_name": "Zeros", "config": {}}, "kernel_regularizer": null, "bias_regularizer": null, "activity_regularizer": null, "kernel_constraint": null, "bias_constraint": null}, "inbound_nodes": [[["activation_107", 0, 0, {}]]]}, {"name": "bn2c_branch2c", "class_name": "FixedBatchNormalization", "config": {"name": "bn2c_branch2c", "trainable": true, "epsilon": 0.001, "axis": 3, "gamma_regularizer": null, "beta_regularizer": null}, "inbound_nodes": [[["res2c_branch2c", 0, 0, {}]]]}, {"name": "add_35", "class_name": "Add", "config": {"name": "add_35", "trainable": true}, "inbound_nodes": [[["bn2c_branch2c", 0, 0, {}], ["activation_105", 0, 0, {}]]]}, {"name": "activation_108", "class_name": "Activation", "config": {"name": "activation_108", "trainable": true, "activation": "relu"}, "inbound_nodes": [[["add_35", 0, 0, {}]]]}, {"name": "res3a_branch2a", "class_name": "Conv2D", "config": {"name": "res3a_branch2a", "trainable": true, "filters": 128, "kernel_size": [1, 1], "strides": [2, 2], "padding": "valid", "data_format": "channels_last", "dilation_rate": [1, 1], "activation": "linear", "use_bias": true, "kernel_initializer": {"class_name": "VarianceScaling", "config": {"scale": 1.0, "mode": "fan_avg", "distribution": "uniform", "seed": null}}, "bias_initializer": {"class_name": "Zeros", "config": {}}, "kernel_regularizer": null, "bias_regularizer": null, "activity_regularizer": null, "kernel_constraint": null, "bias_constraint": null}, "inbound_nodes": [[["activation_108", 0, 0, {}]]]}, {"name": "bn3a_branch2a", "class_name": "FixedBatchNormalization", "config": {"name": "bn3a_branch2a", "trainable": true, "epsilon": 0.001, "axis": 3, "gamma_regularizer": null, "beta_regularizer": null}, "inbound_nodes": [[["res3a_branch2a", 0, 0, {}]]]}, {"name": "activation_109", "class_name": "Activation", "config": {"name": "activation_109", "trainable": true, "activation": "relu"}, "inbound_nodes": [[["bn3a_branch2a", 0, 0, {}]]]}, {"name": "res3a_branch2b", "class_name": "Conv2D", "config": {"name": "res3a_branch2b", "trainable": true, "filters": 128, "kernel_size": [3, 3], "strides": [1, 1], "padding": "same", "data_format": "channels_last", "dilation_rate": [1, 1], "activation": "linear", "use_bias": true, "kernel_initializer": {"class_name": "VarianceScaling", "config": {"scale": 1.0, "mode": "fan_avg", "distribution": "uniform", "seed": null}}, "bias_initializer": {"class_name": "Zeros", "config": {}}, "kernel_regularizer": null, "bias_regularizer": null, "activity_regularizer": null, "kernel_constraint": null, "bias_constraint": null}, "inbound_nodes": [[["activation_109", 0, 0, {}]]]}, {"name": "bn3a_branch2b", "class_name": "FixedBatchNormalization", "config": {"name": "bn3a_branch2b", "trainable": true, "epsilon": 0.001, "axis": 3, "gamma_regularizer": null, "beta_regularizer": null}, "inbound_nodes": [[["res3a_branch2b", 0, 0, {}]]]}, {"name": "activation_110", "class_name": "Activation", "config": {"name": "activation_110", "trainable": true, "activation": "relu"}, "inbound_nodes": [[["bn3a_branch2b", 0, 0, {}]]]}, {"name": "res3a_branch2c", "class_name": "Conv2D", "config": {"name": "res3a_branch2c", "trainable": true, "filters": 512, "kernel_size": [1, 1], "strides": [1, 1], "padding": "valid", "data_format": "channels_last", "dilation_rate": [1, 1], "activation": "linear", "use_bias": true, "kernel_initializer": {"class_name": "VarianceScaling", "config": {"scale": 1.0, "mode": "fan_avg", "distribution": "uniform", "seed": null}}, "bias_initializer": {"class_name": "Zeros", "config": {}}, "kernel_regularizer": null, "bias_regularizer": null, "activity_regularizer": null, "kernel_constraint": null, "bias_constraint": null}, "inbound_nodes": [[["activation_110", 0, 0, {}]]]}, {"name": "res3a_branch1", "class_name": "Conv2D", "config": {"name": "res3a_branch1", "trainable": true, "filters": 512, "kernel_size": [1, 1], "strides": [2, 2], "padding": "valid", "data_format": "channels_last", "dilation_rate": [1, 1], "activation": "linear", "use_bias": true, "kernel_initializer": {"class_name": "VarianceScaling", "config": {"scale": 1.0, "mode": "fan_avg", "distribution": "uniform", "seed": null}}, "bias_initializer": {"class_name": "Zeros", "config": {}}, "kernel_regularizer": null, "bias_regularizer": null, "activity_regularizer": null, "kernel_constraint": null, "bias_constraint": null}, "inbound_nodes": [[["activation_108", 0, 0, {}]]]}, {"name": "bn3a_branch2c", "class_name": "FixedBatchNormalization", "config": {"name": "bn3a_branch2c", "trainable": true, "epsilon": 0.001, "axis": 3, "gamma_regularizer": null, "beta_regularizer": null}, "inbound_nodes": [[["res3a_branch2c", 0, 0, {}]]]}, {"name": "bn3a_branch1", "class_name": "FixedBatchNormalization", "config": {"name": "bn3a_branch1", "trainable": true, "epsilon": 0.001, "axis": 3, "gamma_regularizer": null, "beta_regularizer": null}, "inbound_nodes": [[["res3a_branch1", 0, 0, {}]]]}, {"name": "add_36", "class_name": "Add", "config": {"name": "add_36", "trainable": true}, "inbound_nodes": [[["bn3a_branch2c", 0, 0, {}], ["bn3a_branch1", 0, 0, {}]]]}, {"name": "activation_111", "class_name": "Activation", "config": {"name": "activation_111", "trainable": true, "activation": "relu"}, "inbound_nodes": [[["add_36", 0, 0, {}]]]}, {"name": "res3b_branch2a", "class_name": "Conv2D", "config": {"name": "res3b_branch2a", "trainable": true, "filters": 128, "kernel_size": [1, 1], "strides": [1, 1], "padding": "valid", "data_format": "channels_last", "dilation_rate": [1, 1], "activation": "linear", "use_bias": true, "kernel_initializer": {"class_name": "VarianceScaling", "config": {"scale": 1.0, "mode": "fan_avg", "distribution": "uniform", "seed": null}}, "bias_initializer": {"class_name": "Zeros", "config": {}}, "kernel_regularizer": null, "bias_regularizer": null, "activity_regularizer": null, "kernel_constraint": null, "bias_constraint": null}, "inbound_nodes": [[["activation_111", 0, 0, {}]]]}, {"name": "bn3b_branch2a", "class_name": "FixedBatchNormalization", "config": {"name": "bn3b_branch2a", "trainable": true, "epsilon": 0.001, "axis": 3, "gamma_regularizer": null, "beta_regularizer": null}, "inbound_nodes": [[["res3b_branch2a", 0, 0, {}]]]}, {"name": "activation_112", "class_name": "Activation", "config": {"name": "activation_112", "trainable": true, "activation": "relu"}, "inbound_nodes": [[["bn3b_branch2a", 0, 0, {}]]]}, {"name": "res3b_branch2b", "class_name": "Conv2D", "config": {"name": "res3b_branch2b", "trainable": true, "filters": 128, "kernel_size": [3, 3], "strides": [1, 1], "padding": "same", "data_format": "channels_last", "dilation_rate": [1, 1], "activation": "linear", "use_bias": true, "kernel_initializer": {"class_name": "VarianceScaling", "config": {"scale": 1.0, "mode": "fan_avg", "distribution": "uniform", "seed": null}}, "bias_initializer": {"class_name": "Zeros", "config": {}}, "kernel_regularizer": null, "bias_regularizer": null, "activity_regularizer": null, "kernel_constraint": null, "bias_constraint": null}, "inbound_nodes": [[["activation_112", 0, 0, {}]]]}, {"name": "bn3b_branch2b", "class_name": "FixedBatchNormalization", "config": {"name": "bn3b_branch2b", "trainable": true, "epsilon": 0.001, "axis": 3, "gamma_regularizer": null, "beta_regularizer": null}, "inbound_nodes": [[["res3b_branch2b", 0, 0, {}]]]}, {"name": "activation_113", "class_name": "Activation", "config": {"name": "activation_113", "trainable": true, "activation": "relu"}, "inbound_nodes": [[["bn3b_branch2b", 0, 0, {}]]]}, {"name": "res3b_branch2c", "class_name": "Conv2D", "config": {"name": "res3b_branch2c", "trainable": true, "filters": 512, "kernel_size": [1, 1], "strides": [1, 1], "padding": "valid", "data_format": "channels_last", "dilation_rate": [1, 1], "activation": "linear", "use_bias": true, "kernel_initializer": {"class_name": "VarianceScaling", "config": {"scale": 1.0, "mode": "fan_avg", "distribution": "uniform", "seed": null}}, "bias_initializer": {"class_name": "Zeros", "config": {}}, "kernel_regularizer": null, "bias_regularizer": null, "activity_regularizer": null, "kernel_constraint": null, "bias_constraint": null}, "inbound_nodes": [[["activation_113", 0, 0, {}]]]}, {"name": "bn3b_branch2c", "class_name": "FixedBatchNormalization", "config": {"name": "bn3b_branch2c", "trainable": true, "epsilon": 0.001, "axis": 3, "gamma_regularizer": null, "beta_regularizer": null}, "inbound_nodes": [[["res3b_branch2c", 0, 0, {}]]]}, {"name": "add_37", "class_name": "Add", "config": {"name": "add_37", "trainable": true}, "inbound_nodes": [[["bn3b_branch2c", 0, 0, {}], ["activation_111", 0, 0, {}]]]}, {"name": "activation_114", "class_name": "Activation", "config": {"name": "activation_114", "trainable": true, "activation": "relu"}, "inbound_nodes": [[["add_37", 0, 0, {}]]]}, {"name": "res3c_branch2a", "class_name": "Conv2D", "config": {"name": "res3c_branch2a", "trainable": true, "filters": 128, "kernel_size": [1, 1], "strides": [1, 1], "padding": "valid", "data_format": "channels_last", "dilation_rate": [1, 1], "activation": "linear", "use_bias": true, "kernel_initializer": {"class_name": "VarianceScaling", "config": {"scale": 1.0, "mode": "fan_avg", "distribution": "uniform", "seed": null}}, "bias_initializer": {"class_name": "Zeros", "config": {}}, "kernel_regularizer": null, "bias_regularizer": null, "activity_regularizer": null, "kernel_constraint": null, "bias_constraint": null}, "inbound_nodes": [[["activation_114", 0, 0, {}]]]}, {"name": "bn3c_branch2a", "class_name": "FixedBatchNormalization", "config": {"name": "bn3c_branch2a", "trainable": true, "epsilon": 0.001, "axis": 3, "gamma_regularizer": null, "beta_regularizer": null}, "inbound_nodes": [[["res3c_branch2a", 0, 0, {}]]]}, {"name": "activation_115", "class_name": "Activation", "config": {"name": "activation_115", "trainable": true, "activation": "relu"}, "inbound_nodes": [[["bn3c_branch2a", 0, 0, {}]]]}, {"name": "res3c_branch2b", "class_name": "Conv2D", "config": {"name": "res3c_branch2b", "trainable": true, "filters": 128, "kernel_size": [3, 3], "strides": [1, 1], "padding": "same", "data_format": "channels_last", "dilation_rate": [1, 1], "activation": "linear", "use_bias": true, "kernel_initializer": {"class_name": "VarianceScaling", "config": {"scale": 1.0, "mode": "fan_avg", "distribution": "uniform", "seed": null}}, "bias_initializer": {"class_name": "Zeros", "config": {}}, "kernel_regularizer": null, "bias_regularizer": null, "activity_regularizer": null, "kernel_constraint": null, "bias_constraint": null}, "inbound_nodes": [[["activation_115", 0, 0, {}]]]}, {"name": "bn3c_branch2b", "class_name": "FixedBatchNormalization", "config": {"name": "bn3c_branch2b", "trainable": true, "epsilon": 0.001, "axis": 3, "gamma_regularizer": null, "beta_regularizer": null}, "inbound_nodes": [[["res3c_branch2b", 0, 0, {}]]]}, {"name": "activation_116", "class_name": "Activation", "config": {"name": "activation_116", "trainable": true, "activation": "relu"}, "inbound_nodes": [[["bn3c_branch2b", 0, 0, {}]]]}, {"name": "res3c_branch2c", "class_name": "Conv2D", "config": {"name": "res3c_branch2c", "trainable": true, "filters": 512, "kernel_size": [1, 1], "strides": [1, 1], "padding": "valid", "data_format": "channels_last", "dilation_rate": [1, 1], "activation": "linear", "use_bias": true, "kernel_initializer": {"class_name": "VarianceScaling", "config": {"scale": 1.0, "mode": "fan_avg", "distribution": "uniform", "seed": null}}, "bias_initializer": {"class_name": "Zeros", "config": {}}, "kernel_regularizer": null, "bias_regularizer": null, "activity_regularizer": null, "kernel_constraint": null, "bias_constraint": null}, "inbound_nodes": [[["activation_116", 0, 0, {}]]]}, {"name": "bn3c_branch2c", "class_name": "FixedBatchNormalization", "config": {"name": "bn3c_branch2c", "trainable": true, "epsilon": 0.001, "axis": 3, "gamma_regularizer": null, "beta_regularizer": null}, "inbound_nodes": [[["res3c_branch2c", 0, 0, {}]]]}, {"name": "add_38", "class_name": "Add", "config": {"name": "add_38", "trainable": true}, "inbound_nodes": [[["bn3c_branch2c", 0, 0, {}], ["activation_114", 0, 0, {}]]]}, {"name": "activation_117", "class_name": "Activation", "config": {"name": "activation_117", "trainable": true, "activation": "relu"}, "inbound_nodes": [[["add_38", 0, 0, {}]]]}, {"name": "res3d_branch2a", "class_name": "Conv2D", "config": {"name": "res3d_branch2a", "trainable": true, "filters": 128, "kernel_size": [1, 1], "strides": [1, 1], "padding": "valid", "data_format": "channels_last", "dilation_rate": [1, 1], "activation": "linear", "use_bias": true, "kernel_initializer": {"class_name": "VarianceScaling", "config": {"scale": 1.0, "mode": "fan_avg", "distribution": "uniform", "seed": null}}, "bias_initializer": {"class_name": "Zeros", "config": {}}, "kernel_regularizer": null, "bias_regularizer": null, "activity_regularizer": null, "kernel_constraint": null, "bias_constraint": null}, "inbound_nodes": [[["activation_117", 0, 0, {}]]]}, {"name": "bn3d_branch2a", "class_name": "FixedBatchNormalization", "config": {"name": "bn3d_branch2a", "trainable": true, "epsilon": 0.001, "axis": 3, "gamma_regularizer": null, "beta_regularizer": null}, "inbound_nodes": [[["res3d_branch2a", 0, 0, {}]]]}, {"name": "activation_118", "class_name": "Activation", "config": {"name": "activation_118", "trainable": true, "activation": "relu"}, "inbound_nodes": [[["bn3d_branch2a", 0, 0, {}]]]}, {"name": "res3d_branch2b", "class_name": "Conv2D", "config": {"name": "res3d_branch2b", "trainable": true, "filters": 128, "kernel_size": [3, 3], "strides": [1, 1], "padding": "same", "data_format": "channels_last", "dilation_rate": [1, 1], "activation": "linear", "use_bias": true, "kernel_initializer": {"class_name": "VarianceScaling", "config": {"scale": 1.0, "mode": "fan_avg", "distribution": "uniform", "seed": null}}, "bias_initializer": {"class_name": "Zeros", "config": {}}, "kernel_regularizer": null, "bias_regularizer": null, "activity_regularizer": null, "kernel_constraint": null, "bias_constraint": null}, "inbound_nodes": [[["activation_118", 0, 0, {}]]]}, {"name": "bn3d_branch2b", "class_name": "FixedBatchNormalization", "config": {"name": "bn3d_branch2b", "trainable": true, "epsilon": 0.001, "axis": 3, "gamma_regularizer": null, "beta_regularizer": null}, "inbound_nodes": [[["res3d_branch2b", 0, 0, {}]]]}, {"name": "activation_119", "class_name": "Activation", "config": {"name": "activation_119", "trainable": true, "activation": "relu"}, "inbound_nodes": [[["bn3d_branch2b", 0, 0, {}]]]}, {"name": "res3d_branch2c", "class_name": "Conv2D", "config": {"name": "res3d_branch2c", "trainable": true, "filters": 512, "kernel_size": [1, 1], "strides": [1, 1], "padding": "valid", "data_format": "channels_last", "dilation_rate": [1, 1], "activation": "linear", "use_bias": true, "kernel_initializer": {"class_name": "VarianceScaling", "config": {"scale": 1.0, "mode": "fan_avg", "distribution": "uniform", "seed": null}}, "bias_initializer": {"class_name": "Zeros", "config": {}}, "kernel_regularizer": null, "bias_regularizer": null, "activity_regularizer": null, "kernel_constraint": null, "bias_constraint": null}, "inbound_nodes": [[["activation_119", 0, 0, {}]]]}, {"name": "bn3d_branch2c", "class_name": "FixedBatchNormalization", "config": {"name": "bn3d_branch2c", "trainable": true, "epsilon": 0.001, "axis": 3, "gamma_regularizer": null, "beta_regularizer": null}, "inbound_nodes": [[["res3d_branch2c", 0, 0, {}]]]}, {"name": "add_39", "class_name": "Add", "config": {"name": "add_39", "trainable": true}, "inbound_nodes": [[["bn3d_branch2c", 0, 0, {}], ["activation_117", 0, 0, {}]]]}, {"name": "activation_120", "class_name": "Activation", "config": {"name": "activation_120", "trainable": true, "activation": "relu"}, "inbound_nodes": [[["add_39", 0, 0, {}]]]}, {"name": "res4a_branch2a", "class_name": "Conv2D", "config": {"name": "res4a_branch2a", "trainable": true, "filters": 256, "kernel_size": [1, 1], "strides": [2, 2], "padding": "valid", "data_format": "channels_last", "dilation_rate": [1, 1], "activation": "linear", "use_bias": true, "kernel_initializer": {"class_name": "VarianceScaling", "config": {"scale": 1.0, "mode": "fan_avg", "distribution": "uniform", "seed": null}}, "bias_initializer": {"class_name": "Zeros", "config": {}}, "kernel_regularizer": null, "bias_regularizer": null, "activity_regularizer": null, "kernel_constraint": null, "bias_constraint": null}, "inbound_nodes": [[["activation_120", 0, 0, {}]]]}, {"name": "bn4a_branch2a", "class_name": "FixedBatchNormalization", "config": {"name": "bn4a_branch2a", "trainable": true, "epsilon": 0.001, "axis": 3, "gamma_regularizer": null, "beta_regularizer": null}, "inbound_nodes": [[["res4a_branch2a", 0, 0, {}]]]}, {"name": "activation_121", "class_name": "Activation", "config": {"name": "activation_121", "trainable": true, "activation": "relu"}, "inbound_nodes": [[["bn4a_branch2a", 0, 0, {}]]]}, {"name": "res4a_branch2b", "class_name": "Conv2D", "config": {"name": "res4a_branch2b", "trainable": true, "filters": 256, "kernel_size": [3, 3], "strides": [1, 1], "padding": "same", "data_format": "channels_last", "dilation_rate": [1, 1], "activation": "linear", "use_bias": true, "kernel_initializer": {"class_name": "VarianceScaling", "config": {"scale": 1.0, "mode": "fan_avg", "distribution": "uniform", "seed": null}}, "bias_initializer": {"class_name": "Zeros", "config": {}}, "kernel_regularizer": null, "bias_regularizer": null, "activity_regularizer": null, "kernel_constraint": null, "bias_constraint": null}, "inbound_nodes": [[["activation_121", 0, 0, {}]]]}, {"name": "bn4a_branch2b", "class_name": "FixedBatchNormalization", "config": {"name": "bn4a_branch2b", "trainable": true, "epsilon": 0.001, "axis": 3, "gamma_regularizer": null, "beta_regularizer": null}, "inbound_nodes": [[["res4a_branch2b", 0, 0, {}]]]}, {"name": "activation_122", "class_name": "Activation", "config": {"name": "activation_122", "trainable": true, "activation": "relu"}, "inbound_nodes": [[["bn4a_branch2b", 0, 0, {}]]]}, {"name": "res4a_branch2c", "class_name": "Conv2D", "config": {"name": "res4a_branch2c", "trainable": true, "filters": 1024, "kernel_size": [1, 1], "strides": [1, 1], "padding": "valid", "data_format": "channels_last", "dilation_rate": [1, 1], "activation": "linear", "use_bias": true, "kernel_initializer": {"class_name": "VarianceScaling", "config": {"scale": 1.0, "mode": "fan_avg", "distribution": "uniform", "seed": null}}, "bias_initializer": {"class_name": "Zeros", "config": {}}, "kernel_regularizer": null, "bias_regularizer": null, "activity_regularizer": null, "kernel_constraint": null, "bias_constraint": null}, "inbound_nodes": [[["activation_122", 0, 0, {}]]]}, {"name": "res4a_branch1", "class_name": "Conv2D", "config": {"name": "res4a_branch1", "trainable": true, "filters": 1024, "kernel_size": [1, 1], "strides": [2, 2], "padding": "valid", "data_format": "channels_last", "dilation_rate": [1, 1], "activation": "linear", "use_bias": true, "kernel_initializer": {"class_name": "VarianceScaling", "config": {"scale": 1.0, "mode": "fan_avg", "distribution": "uniform", "seed": null}}, "bias_initializer": {"class_name": "Zeros", "config": {}}, "kernel_regularizer": null, "bias_regularizer": null, "activity_regularizer": null, "kernel_constraint": null, "bias_constraint": null}, "inbound_nodes": [[["activation_120", 0, 0, {}]]]}, {"name": "bn4a_branch2c", "class_name": "FixedBatchNormalization", "config": {"name": "bn4a_branch2c", "trainable": true, "epsilon": 0.001, "axis": 3, "gamma_regularizer": null, "beta_regularizer": null}, "inbound_nodes": [[["res4a_branch2c", 0, 0, {}]]]}, {"name": "bn4a_branch1", "class_name": "FixedBatchNormalization", "config": {"name": "bn4a_branch1", "trainable": true, "epsilon": 0.001, "axis": 3, "gamma_regularizer": null, "beta_regularizer": null}, "inbound_nodes": [[["res4a_branch1", 0, 0, {}]]]}, {"name": "add_40", "class_name": "Add", "config": {"name": "add_40", "trainable": true}, "inbound_nodes": [[["bn4a_branch2c", 0, 0, {}], ["bn4a_branch1", 0, 0, {}]]]}, {"name": "activation_123", "class_name": "Activation", "config": {"name": "activation_123", "trainable": true, "activation": "relu"}, "inbound_nodes": [[["add_40", 0, 0, {}]]]}, {"name": "res4b_branch2a", "class_name": "Conv2D", "config": {"name": "res4b_branch2a", "trainable": true, "filters": 256, "kernel_size": [1, 1], "strides": [1, 1], "padding": "valid", "data_format": "channels_last", "dilation_rate": [1, 1], "activation": "linear", "use_bias": true, "kernel_initializer": {"class_name": "VarianceScaling", "config": {"scale": 1.0, "mode": "fan_avg", "distribution": "uniform", "seed": null}}, "bias_initializer": {"class_name": "Zeros", "config": {}}, "kernel_regularizer": null, "bias_regularizer": null, "activity_regularizer": null, "kernel_constraint": null, "bias_constraint": null}, "inbound_nodes": [[["activation_123", 0, 0, {}]]]}, {"name": "bn4b_branch2a", "class_name": "FixedBatchNormalization", "config": {"name": "bn4b_branch2a", "trainable": true, "epsilon": 0.001, "axis": 3, "gamma_regularizer": null, "beta_regularizer": null}, "inbound_nodes": [[["res4b_branch2a", 0, 0, {}]]]}, {"name": "activation_124", "class_name": "Activation", "config": {"name": "activation_124", "trainable": true, "activation": "relu"}, "inbound_nodes": [[["bn4b_branch2a", 0, 0, {}]]]}, {"name": "res4b_branch2b", "class_name": "Conv2D", "config": {"name": "res4b_branch2b", "trainable": true, "filters": 256, "kernel_size": [3, 3], "strides": [1, 1], "padding": "same", "data_format": "channels_last", "dilation_rate": [1, 1], "activation": "linear", "use_bias": true, "kernel_initializer": {"class_name": "VarianceScaling", "config": {"scale": 1.0, "mode": "fan_avg", "distribution": "uniform", "seed": null}}, "bias_initializer": {"class_name": "Zeros", "config": {}}, "kernel_regularizer": null, "bias_regularizer": null, "activity_regularizer": null, "kernel_constraint": null, "bias_constraint": null}, "inbound_nodes": [[["activation_124", 0, 0, {}]]]}, {"name": "bn4b_branch2b", "class_name": "FixedBatchNormalization", "config": {"name": "bn4b_branch2b", "trainable": true, "epsilon": 0.001, "axis": 3, "gamma_regularizer": null, "beta_regularizer": null}, "inbound_nodes": [[["res4b_branch2b", 0, 0, {}]]]}, {"name": "activation_125", "class_name": "Activation", "config": {"name": "activation_125", "trainable": true, "activation": "relu"}, "inbound_nodes": [[["bn4b_branch2b", 0, 0, {}]]]}, {"name": "res4b_branch2c", "class_name": "Conv2D", "config": {"name": "res4b_branch2c", "trainable": true, "filters": 1024, "kernel_size": [1, 1], "strides": [1, 1], "padding": "valid", "data_format": "channels_last", "dilation_rate": [1, 1], "activation": "linear", "use_bias": true, "kernel_initializer": {"class_name": "VarianceScaling", "config": {"scale": 1.0, "mode": "fan_avg", "distribution": "uniform", "seed": null}}, "bias_initializer": {"class_name": "Zeros", "config": {}}, "kernel_regularizer": null, "bias_regularizer": null, "activity_regularizer": null, "kernel_constraint": null, "bias_constraint": null}, "inbound_nodes": [[["activation_125", 0, 0, {}]]]}, {"name": "bn4b_branch2c", "class_name": "FixedBatchNormalization", "config": {"name": "bn4b_branch2c", "trainable": true, "epsilon": 0.001, "axis": 3, "gamma_regularizer": null, "beta_regularizer": null}, "inbound_nodes": [[["res4b_branch2c", 0, 0, {}]]]}, {"name": "add_41", "class_name": "Add", "config": {"name": "add_41", "trainable": true}, "inbound_nodes": [[["bn4b_branch2c", 0, 0, {}], ["activation_123", 0, 0, {}]]]}, {"name": "activation_126", "class_name": "Activation", "config": {"name": "activation_126", "trainable": true, "activation": "relu"}, "inbound_nodes": [[["add_41", 0, 0, {}]]]}, {"name": "res4c_branch2a", "class_name": "Conv2D", "config": {"name": "res4c_branch2a", "trainable": true, "filters": 256, "kernel_size": [1, 1], "strides": [1, 1], "padding": "valid", "data_format": "channels_last", "dilation_rate": [1, 1], "activation": "linear", "use_bias": true, "kernel_initializer": {"class_name": "VarianceScaling", "config": {"scale": 1.0, "mode": "fan_avg", "distribution": "uniform", "seed": null}}, "bias_initializer": {"class_name": "Zeros", "config": {}}, "kernel_regularizer": null, "bias_regularizer": null, "activity_regularizer": null, "kernel_constraint": null, "bias_constraint": null}, "inbound_nodes": [[["activation_126", 0, 0, {}]]]}, {"name": "bn4c_branch2a", "class_name": "FixedBatchNormalization", "config": {"name": "bn4c_branch2a", "trainable": true, "epsilon": 0.001, "axis": 3, "gamma_regularizer": null, "beta_regularizer": null}, "inbound_nodes": [[["res4c_branch2a", 0, 0, {}]]]}, {"name": "activation_127", "class_name": "Activation", "config": {"name": "activation_127", "trainable": true, "activation": "relu"}, "inbound_nodes": [[["bn4c_branch2a", 0, 0, {}]]]}, {"name": "res4c_branch2b", "class_name": "Conv2D", "config": {"name": "res4c_branch2b", "trainable": true, "filters": 256, "kernel_size": [3, 3], "strides": [1, 1], "padding": "same", "data_format": "channels_last", "dilation_rate": [1, 1], "activation": "linear", "use_bias": true, "kernel_initializer": {"class_name": "VarianceScaling", "config": {"scale": 1.0, "mode": "fan_avg", "distribution": "uniform", "seed": null}}, "bias_initializer": {"class_name": "Zeros", "config": {}}, "kernel_regularizer": null, "bias_regularizer": null, "activity_regularizer": null, "kernel_constraint": null, "bias_constraint": null}, "inbound_nodes": [[["activation_127", 0, 0, {}]]]}, {"name": "bn4c_branch2b", "class_name": "FixedBatchNormalization", "config": {"name": "bn4c_branch2b", "trainable": true, "epsilon": 0.001, "axis": 3, "gamma_regularizer": null, "beta_regularizer": null}, "inbound_nodes": [[["res4c_branch2b", 0, 0, {}]]]}, {"name": "activation_128", "class_name": "Activation", "config": {"name": "activation_128", "trainable": true, "activation": "relu"}, "inbound_nodes": [[["bn4c_branch2b", 0, 0, {}]]]}, {"name": "res4c_branch2c", "class_name": "Conv2D", "config": {"name": "res4c_branch2c", "trainable": true, "filters": 1024, "kernel_size": [1, 1], "strides": [1, 1], "padding": "valid", "data_format": "channels_last", "dilation_rate": [1, 1], "activation": "linear", "use_bias": true, "kernel_initializer": {"class_name": "VarianceScaling", "config": {"scale": 1.0, "mode": "fan_avg", "distribution": "uniform", "seed": null}}, "bias_initializer": {"class_name": "Zeros", "config": {}}, "kernel_regularizer": null, "bias_regularizer": null, "activity_regularizer": null, "kernel_constraint": null, "bias_constraint": null}, "inbound_nodes": [[["activation_128", 0, 0, {}]]]}, {"name": "bn4c_branch2c", "class_name": "FixedBatchNormalization", "config": {"name": "bn4c_branch2c", "trainable": true, "epsilon": 0.001, "axis": 3, "gamma_regularizer": null, "beta_regularizer": null}, "inbound_nodes": [[["res4c_branch2c", 0, 0, {}]]]}, {"name": "add_42", "class_name": "Add", "config": {"name": "add_42", "trainable": true}, "inbound_nodes": [[["bn4c_branch2c", 0, 0, {}], ["activation_126", 0, 0, {}]]]}, {"name": "activation_129", "class_name": "Activation", "config": {"name": "activation_129", "trainable": true, "activation": "relu"}, "inbound_nodes": [[["add_42", 0, 0, {}]]]}, {"name": "res4d_branch2a", "class_name": "Conv2D", "config": {"name": "res4d_branch2a", "trainable": true, "filters": 256, "kernel_size": [1, 1], "strides": [1, 1], "padding": "valid", "data_format": "channels_last", "dilation_rate": [1, 1], "activation": "linear", "use_bias": true, "kernel_initializer": {"class_name": "VarianceScaling", "config": {"scale": 1.0, "mode": "fan_avg", "distribution": "uniform", "seed": null}}, "bias_initializer": {"class_name": "Zeros", "config": {}}, "kernel_regularizer": null, "bias_regularizer": null, "activity_regularizer": null, "kernel_constraint": null, "bias_constraint": null}, "inbound_nodes": [[["activation_129", 0, 0, {}]]]}, {"name": "bn4d_branch2a", "class_name": "FixedBatchNormalization", "config": {"name": "bn4d_branch2a", "trainable": true, "epsilon": 0.001, "axis": 3, "gamma_regularizer": null, "beta_regularizer": null}, "inbound_nodes": [[["res4d_branch2a", 0, 0, {}]]]}, {"name": "activation_130", "class_name": "Activation", "config": {"name": "activation_130", "trainable": true, "activation": "relu"}, "inbound_nodes": [[["bn4d_branch2a", 0, 0, {}]]]}, {"name": "res4d_branch2b", "class_name": "Conv2D", "config": {"name": "res4d_branch2b", "trainable": true, "filters": 256, "kernel_size": [3, 3], "strides": [1, 1], "padding": "same", "data_format": "channels_last", "dilation_rate": [1, 1], "activation": "linear", "use_bias": true, "kernel_initializer": {"class_name": "VarianceScaling", "config": {"scale": 1.0, "mode": "fan_avg", "distribution": "uniform", "seed": null}}, "bias_initializer": {"class_name": "Zeros", "config": {}}, "kernel_regularizer": null, "bias_regularizer": null, "activity_regularizer": null, "kernel_constraint": null, "bias_constraint": null}, "inbound_nodes": [[["activation_130", 0, 0, {}]]]}, {"name": "bn4d_branch2b", "class_name": "FixedBatchNormalization", "config": {"name": "bn4d_branch2b", "trainable": true, "epsilon": 0.001, "axis": 3, "gamma_regularizer": null, "beta_regularizer": null}, "inbound_nodes": [[["res4d_branch2b", 0, 0, {}]]]}, {"name": "activation_131", "class_name": "Activation", "config": {"name": "activation_131", "trainable": true, "activation": "relu"}, "inbound_nodes": [[["bn4d_branch2b", 0, 0, {}]]]}, {"name": "res4d_branch2c", "class_name": "Conv2D", "config": {"name": "res4d_branch2c", "trainable": true, "filters": 1024, "kernel_size": [1, 1], "strides": [1, 1], "padding": "valid", "data_format": "channels_last", "dilation_rate": [1, 1], "activation": "linear", "use_bias": true, "kernel_initializer": {"class_name": "VarianceScaling", "config": {"scale": 1.0, "mode": "fan_avg", "distribution": "uniform", "seed": null}}, "bias_initializer": {"class_name": "Zeros", "config": {}}, "kernel_regularizer": null, "bias_regularizer": null, "activity_regularizer": null, "kernel_constraint": null, "bias_constraint": null}, "inbound_nodes": [[["activation_131", 0, 0, {}]]]}, {"name": "bn4d_branch2c", "class_name": "FixedBatchNormalization", "config": {"name": "bn4d_branch2c", "trainable": true, "epsilon": 0.001, "axis": 3, "gamma_regularizer": null, "beta_regularizer": null}, "inbound_nodes": [[["res4d_branch2c", 0, 0, {}]]]}, {"name": "add_43", "class_name": "Add", "config": {"name": "add_43", "trainable": true}, "inbound_nodes": [[["bn4d_branch2c", 0, 0, {}], ["activation_129", 0, 0, {}]]]}, {"name": "activation_132", "class_name": "Activation", "config": {"name": "activation_132", "trainable": true, "activation": "relu"}, "inbound_nodes": [[["add_43", 0, 0, {}]]]}, {"name": "res4e_branch2a", "class_name": "Conv2D", "config": {"name": "res4e_branch2a", "trainable": true, "filters": 256, "kernel_size": [1, 1], "strides": [1, 1], "padding": "valid", "data_format": "channels_last", "dilation_rate": [1, 1], "activation": "linear", "use_bias": true, "kernel_initializer": {"class_name": "VarianceScaling", "config": {"scale": 1.0, "mode": "fan_avg", "distribution": "uniform", "seed": null}}, "bias_initializer": {"class_name": "Zeros", "config": {}}, "kernel_regularizer": null, "bias_regularizer": null, "activity_regularizer": null, "kernel_constraint": null, "bias_constraint": null}, "inbound_nodes": [[["activation_132", 0, 0, {}]]]}, {"name": "bn4e_branch2a", "class_name": "FixedBatchNormalization", "config": {"name": "bn4e_branch2a", "trainable": true, "epsilon": 0.001, "axis": 3, "gamma_regularizer": null, "beta_regularizer": null}, "inbound_nodes": [[["res4e_branch2a", 0, 0, {}]]]}, {"name": "activation_133", "class_name": "Activation", "config": {"name": "activation_133", "trainable": true, "activation": "relu"}, "inbound_nodes": [[["bn4e_branch2a", 0, 0, {}]]]}, {"name": "res4e_branch2b", "class_name": "Conv2D", "config": {"name": "res4e_branch2b", "trainable": true, "filters": 256, "kernel_size": [3, 3], "strides": [1, 1], "padding": "same", "data_format": "channels_last", "dilation_rate": [1, 1], "activation": "linear", "use_bias": true, "kernel_initializer": {"class_name": "VarianceScaling", "config": {"scale": 1.0, "mode": "fan_avg", "distribution": "uniform", "seed": null}}, "bias_initializer": {"class_name": "Zeros", "config": {}}, "kernel_regularizer": null, "bias_regularizer": null, "activity_regularizer": null, "kernel_constraint": null, "bias_constraint": null}, "inbound_nodes": [[["activation_133", 0, 0, {}]]]}, {"name": "bn4e_branch2b", "class_name": "FixedBatchNormalization", "config": {"name": "bn4e_branch2b", "trainable": true, "epsilon": 0.001, "axis": 3, "gamma_regularizer": null, "beta_regularizer": null}, "inbound_nodes": [[["res4e_branch2b", 0, 0, {}]]]}, {"name": "activation_134", "class_name": "Activation", "config": {"name": "activation_134", "trainable": true, "activation": "relu"}, "inbound_nodes": [[["bn4e_branch2b", 0, 0, {}]]]}, {"name": "res4e_branch2c", "class_name": "Conv2D", "config": {"name": "res4e_branch2c", "trainable": true, "filters": 1024, "kernel_size": [1, 1], "strides": [1, 1], "padding": "valid", "data_format": "channels_last", "dilation_rate": [1, 1], "activation": "linear", "use_bias": true, "kernel_initializer": {"class_name": "VarianceScaling", "config": {"scale": 1.0, "mode": "fan_avg", "distribution": "uniform", "seed": null}}, "bias_initializer": {"class_name": "Zeros", "config": {}}, "kernel_regularizer": null, "bias_regularizer": null, "activity_regularizer": null, "kernel_constraint": null, "bias_constraint": null}, "inbound_nodes": [[["activation_134", 0, 0, {}]]]}, {"name": "bn4e_branch2c", "class_name": "FixedBatchNormalization", "config": {"name": "bn4e_branch2c", "trainable": true, "epsilon": 0.001, "axis": 3, "gamma_regularizer": null, "beta_regularizer": null}, "inbound_nodes": [[["res4e_branch2c", 0, 0, {}]]]}, {"name": "add_44", "class_name": "Add", "config": {"name": "add_44", "trainable": true}, "inbound_nodes": [[["bn4e_branch2c", 0, 0, {}], ["activation_132", 0, 0, {}]]]}, {"name": "activation_135", "class_name": "Activation", "config": {"name": "activation_135", "trainable": true, "activation": "relu"}, "inbound_nodes": [[["add_44", 0, 0, {}]]]}, {"name": "res4f_branch2a", "class_name": "Conv2D", "config": {"name": "res4f_branch2a", "trainable": true, "filters": 256, "kernel_size": [1, 1], "strides": [1, 1], "padding": "valid", "data_format": "channels_last", "dilation_rate": [1, 1], "activation": "linear", "use_bias": true, "kernel_initializer": {"class_name": "VarianceScaling", "config": {"scale": 1.0, "mode": "fan_avg", "distribution": "uniform", "seed": null}}, "bias_initializer": {"class_name": "Zeros", "config": {}}, "kernel_regularizer": null, "bias_regularizer": null, "activity_regularizer": null, "kernel_constraint": null, "bias_constraint": null}, "inbound_nodes": [[["activation_135", 0, 0, {}]]]}, {"name": "bn4f_branch2a", "class_name": "FixedBatchNormalization", "config": {"name": "bn4f_branch2a", "trainable": true, "epsilon": 0.001, "axis": 3, "gamma_regularizer": null, "beta_regularizer": null}, "inbound_nodes": [[["res4f_branch2a", 0, 0, {}]]]}, {"name": "activation_136", "class_name": "Activation", "config": {"name": "activation_136", "trainable": true, "activation": "relu"}, "inbound_nodes": [[["bn4f_branch2a", 0, 0, {}]]]}, {"name": "res4f_branch2b", "class_name": "Conv2D", "config": {"name": "res4f_branch2b", "trainable": true, "filters": 256, "kernel_size": [3, 3], "strides": [1, 1], "padding": "same", "data_format": "channels_last", "dilation_rate": [1, 1], "activation": "linear", "use_bias": true, "kernel_initializer": {"class_name": "VarianceScaling", "config": {"scale": 1.0, "mode": "fan_avg", "distribution": "uniform", "seed": null}}, "bias_initializer": {"class_name": "Zeros", "config": {}}, "kernel_regularizer": null, "bias_regularizer": null, "activity_regularizer": null, "kernel_constraint": null, "bias_constraint": null}, "inbound_nodes": [[["activation_136", 0, 0, {}]]]}, {"name": "bn4f_branch2b", "class_name": "FixedBatchNormalization", "config": {"name": "bn4f_branch2b", "trainable": true, "epsilon": 0.001, "axis": 3, "gamma_regularizer": null, "beta_regularizer": null}, "inbound_nodes": [[["res4f_branch2b", 0, 0, {}]]]}, {"name": "activation_137", "class_name": "Activation", "config": {"name": "activation_137", "trainable": true, "activation": "relu"}, "inbound_nodes": [[["bn4f_branch2b", 0, 0, {}]]]}, {"name": "res4f_branch2c", "class_name": "Conv2D", "config": {"name": "res4f_branch2c", "trainable": true, "filters": 1024, "kernel_size": [1, 1], "strides": [1, 1], "padding": "valid", "data_format": "channels_last", "dilation_rate": [1, 1], "activation": "linear", "use_bias": true, "kernel_initializer": {"class_name": "VarianceScaling", "config": {"scale": 1.0, "mode": "fan_avg", "distribution": "uniform", "seed": null}}, "bias_initializer": {"class_name": "Zeros", "config": {}}, "kernel_regularizer": null, "bias_regularizer": null, "activity_regularizer": null, "kernel_constraint": null, "bias_constraint": null}, "inbound_nodes": [[["activation_137", 0, 0, {}]]]}, {"name": "bn4f_branch2c", "class_name": "FixedBatchNormalization", "config": {"name": "bn4f_branch2c", "trainable": true, "epsilon": 0.001, "axis": 3, "gamma_regularizer": null, "beta_regularizer": null}, "inbound_nodes": [[["res4f_branch2c", 0, 0, {}]]]}, {"name": "add_45", "class_name": "Add", "config": {"name": "add_45", "trainable": true}, "inbound_nodes": [[["bn4f_branch2c", 0, 0, {}], ["activation_135", 0, 0, {}]]]}, {"name": "activation_138", "class_name": "Activation", "config": {"name": "activation_138", "trainable": true, "activation": "relu"}, "inbound_nodes": [[["add_45", 0, 0, {}]]]}, {"name": "input_6", "class_name": "InputLayer", "config": {"batch_input_shape": [null, null, 4], "dtype": "float32", "sparse": false, "name": "input_6"}, "inbound_nodes": []}, {"name": "roi_pooling_conv_3", "class_name": "RoiPoolingConv", "config": {"name": "roi_pooling_conv_3", "trainable": true}, "inbound_nodes": [[["activation_138", 0, 0, {}], ["input_6", 0, 0, {}]]]}, {"name": "res5a_branch2a", "class_name": "TimeDistributed", "config": {"name": "res5a_branch2a", "trainable": true, "batch_input_shape": [null, 32, 14, 14, 1024], "dtype": "float32", "layer": {"class_name": "Conv2D", "config": {"name": "conv2d_21", "trainable": true, "filters": 512, "kernel_size": [1, 1], "strides": [2, 2], "padding": "valid", "data_format": "channels_last", "dilation_rate": [1, 1], "activation": "linear", "use_bias": true, "kernel_initializer": {"class_name": "RandomNormal", "config": {"mean": 0.0, "stddev": 0.05, "seed": null}}, "bias_initializer": {"class_name": "Zeros", "config": {}}, "kernel_regularizer": null, "bias_regularizer": null, "activity_regularizer": null, "kernel_constraint": null, "bias_constraint": null}}}, "inbound_nodes": [[["roi_pooling_conv_3", 0, 0, {}]]]}, {"name": "bn5a_branch2a", "class_name": "TimeDistributed", "config": {"name": "bn5a_branch2a", "trainable": true, "layer": {"class_name": "FixedBatchNormalization", "config": {"name": "fixed_batch_normalization_21", "trainable": true, "epsilon": 0.001, "axis": 3, "gamma_regularizer": null, "beta_regularizer": null}}}, "inbound_nodes": [[["res5a_branch2a", 0, 0, {}]]]}, {"name": "activation_139", "class_name": "Activation", "config": {"name": "activation_139", "trainable": true, "activation": "relu"}, "inbound_nodes": [[["bn5a_branch2a", 0, 0, {}]]]}, {"name": "res5a_branch2b", "class_name": "TimeDistributed", "config": {"name": "res5a_branch2b", "trainable": true, "layer": {"class_name": "Conv2D", "config": {"name": "conv2d_22", "trainable": true, "filters": 512, "kernel_size": [3, 3], "strides": [1, 1], "padding": "same", "data_format": "channels_last", "dilation_rate": [1, 1], "activation": "linear", "use_bias": true, "kernel_initializer": {"class_name": "RandomNormal", "config": {"mean": 0.0, "stddev": 0.05, "seed": null}}, "bias_initializer": {"class_name": "Zeros", "config": {}}, "kernel_regularizer": null, "bias_regularizer": null, "activity_regularizer": null, "kernel_constraint": null, "bias_constraint": null}}}, "inbound_nodes": [[["activation_139", 0, 0, {}]]]}, {"name": "bn5a_branch2b", "class_name": "TimeDistributed", "config": {"name": "bn5a_branch2b", "trainable": true, "layer": {"class_name": "FixedBatchNormalization", "config": {"name": "fixed_batch_normalization_22", "trainable": true, "epsilon": 0.001, "axis": 3, "gamma_regularizer": null, "beta_regularizer": null}}}, "inbound_nodes": [[["res5a_branch2b", 0, 0, {}]]]}, {"name": "activation_140", "class_name": "Activation", "config": {"name": "activation_140", "trainable": true, "activation": "relu"}, "inbound_nodes": [[["bn5a_branch2b", 0, 0, {}]]]}, {"name": "res5a_branch2c", "class_name": "TimeDistributed", "config": {"name": "res5a_branch2c", "trainable": true, "layer": {"class_name": "Conv2D", "config": {"name": "conv2d_23", "trainable": true, "filters": 2048, "kernel_size": [1, 1], "strides": [1, 1], "padding": "valid", "data_format": "channels_last", "dilation_rate": [1, 1], "activation": "linear", "use_bias": true, "kernel_initializer": {"class_name": "RandomNormal", "config": {"mean": 0.0, "stddev": 0.05, "seed": null}}, "bias_initializer": {"class_name": "Zeros", "config": {}}, "kernel_regularizer": null, "bias_regularizer": null, "activity_regularizer": null, "kernel_constraint": null, "bias_constraint": null}}}, "inbound_nodes": [[["activation_140", 0, 0, {}]]]}, {"name": "res5a_branch1", "class_name": "TimeDistributed", "config": {"name": "res5a_branch1", "trainable": true, "layer": {"class_name": "Conv2D", "config": {"name": "conv2d_24", "trainable": true, "filters": 2048, "kernel_size": [1, 1], "strides": [2, 2], "padding": "valid", "data_format": "channels_last", "dilation_rate": [1, 1], "activation": "linear", "use_bias": true, "kernel_initializer": {"class_name": "RandomNormal", "config": {"mean": 0.0, "stddev": 0.05, "seed": null}}, "bias_initializer": {"class_name": "Zeros", "config": {}}, "kernel_regularizer": null, "bias_regularizer": null, "activity_regularizer": null, "kernel_constraint": null, "bias_constraint": null}}}, "inbound_nodes": [[["roi_pooling_conv_3", 0, 0, {}]]]}, {"name": "bn5a_branch2c", "class_name": "TimeDistributed", "config": {"name": "bn5a_branch2c", "trainable": true, "layer": {"class_name": "FixedBatchNormalization", "config": {"name": "fixed_batch_normalization_23", "trainable": true, "epsilon": 0.001, "axis": 3, "gamma_regularizer": null, "beta_regularizer": null}}}, "inbound_nodes": [[["res5a_branch2c", 0, 0, {}]]]}, {"name": "bn5a_branch1", "class_name": "TimeDistributed", "config": {"name": "bn5a_branch1", "trainable": true, "layer": {"class_name": "FixedBatchNormalization", "config": {"name": "fixed_batch_normalization_24", "trainable": true, "epsilon": 0.001, "axis": 3, "gamma_regularizer": null, "beta_regularizer": null}}}, "inbound_nodes": [[["res5a_branch1", 0, 0, {}]]]}, {"name": "add_46", "class_name": "Add", "config": {"name": "add_46", "trainable": true}, "inbound_nodes": [[["bn5a_branch2c", 0, 0, {}], ["bn5a_branch1", 0, 0, {}]]]}, {"name": "activation_141", "class_name": "Activation", "config": {"name": "activation_141", "trainable": true, "activation": "relu"}, "inbound_nodes": [[["add_46", 0, 0, {}]]]}, {"name": "res5b_branch2a", "class_name": "TimeDistributed", "config": {"name": "res5b_branch2a", "trainable": true, "layer": {"class_name": "Conv2D", "config": {"name": "conv2d_25", "trainable": true, "filters": 512, "kernel_size": [1, 1], "strides": [1, 1], "padding": "valid", "data_format": "channels_last", "dilation_rate": [1, 1], "activation": "linear", "use_bias": true, "kernel_initializer": {"class_name": "RandomNormal", "config": {"mean": 0.0, "stddev": 0.05, "seed": null}}, "bias_initializer": {"class_name": "Zeros", "config": {}}, "kernel_regularizer": null, "bias_regularizer": null, "activity_regularizer": null, "kernel_constraint": null, "bias_constraint": null}}}, "inbound_nodes": [[["activation_141", 0, 0, {}]]]}, {"name": "bn5b_branch2a", "class_name": "TimeDistributed", "config": {"name": "bn5b_branch2a", "trainable": true, "layer": {"class_name": "FixedBatchNormalization", "config": {"name": "fixed_batch_normalization_25", "trainable": true, "epsilon": 0.001, "axis": 3, "gamma_regularizer": null, "beta_regularizer": null}}}, "inbound_nodes": [[["res5b_branch2a", 0, 0, {}]]]}, {"name": "activation_142", "class_name": "Activation", "config": {"name": "activation_142", "trainable": true, "activation": "relu"}, "inbound_nodes": [[["bn5b_branch2a", 0, 0, {}]]]}, {"name": "res5b_branch2b", "class_name": "TimeDistributed", "config": {"name": "res5b_branch2b", "trainable": true, "layer": {"class_name": "Conv2D", "config": {"name": "conv2d_26", "trainable": true, "filters": 512, "kernel_size": [3, 3], "strides": [1, 1], "padding": "same", "data_format": "channels_last", "dilation_rate": [1, 1], "activation": "linear", "use_bias": true, "kernel_initializer": {"class_name": "RandomNormal", "config": {"mean": 0.0, "stddev": 0.05, "seed": null}}, "bias_initializer": {"class_name": "Zeros", "config": {}}, "kernel_regularizer": null, "bias_regularizer": null, "activity_regularizer": null, "kernel_constraint": null, "bias_constraint": null}}}, "inbound_nodes": [[["activation_142", 0, 0, {}]]]}, {"name": "bn5b_branch2b", "class_name": "TimeDistributed", "config": {"name": "bn5b_branch2b", "trainable": true, "layer": {"class_name": "FixedBatchNormalization", "config": {"name": "fixed_batch_normalization_26", "trainable": true, "epsilon": 0.001, "axis": 3, "gamma_regularizer": null, "beta_regularizer": null}}}, "inbound_nodes": [[["res5b_branch2b", 0, 0, {}]]]}, {"name": "activation_143", "class_name": "Activation", "config": {"name": "activation_143", "trainable": true, "activation": "relu"}, "inbound_nodes": [[["bn5b_branch2b", 0, 0, {}]]]}, {"name": "res5b_branch2c", "class_name": "TimeDistributed", "config": {"name": "res5b_branch2c", "trainable": true, "layer": {"class_name": "Conv2D", "config": {"name": "conv2d_27", "trainable": true, "filters": 2048, "kernel_size": [1, 1], "strides": [1, 1], "padding": "valid", "data_format": "channels_last", "dilation_rate": [1, 1], "activation": "linear", "use_bias": true, "kernel_initializer": {"class_name": "RandomNormal", "config": {"mean": 0.0, "stddev": 0.05, "seed": null}}, "bias_initializer": {"class_name": "Zeros", "config": {}}, "kernel_regularizer": null, "bias_regularizer": null, "activity_regularizer": null, "kernel_constraint": null, "bias_constraint": null}}}, "inbound_nodes": [[["activation_143", 0, 0, {}]]]}, {"name": "bn5b_branch2c", "class_name": "TimeDistributed", "config": {"name": "bn5b_branch2c", "trainable": true, "layer": {"class_name": "FixedBatchNormalization", "config": {"name": "fixed_batch_normalization_27", "trainable": true, "epsilon": 0.001, "axis": 3, "gamma_regularizer": null, "beta_regularizer": null}}}, "inbound_nodes": [[["res5b_branch2c", 0, 0, {}]]]}, {"name": "add_47", "class_name": "Add", "config": {"name": "add_47", "trainable": true}, "inbound_nodes": [[["bn5b_branch2c", 0, 0, {}], ["activation_141", 0, 0, {}]]]}, {"name": "activation_144", "class_name": "Activation", "config": {"name": "activation_144", "trainable": true, "activation": "relu"}, "inbound_nodes": [[["add_47", 0, 0, {}]]]}, {"name": "res5c_branch2a", "class_name": "TimeDistributed", "config": {"name": "res5c_branch2a", "trainable": true, "layer": {"class_name": "Conv2D", "config": {"name": "conv2d_28", "trainable": true, "filters": 512, "kernel_size": [1, 1], "strides": [1, 1], "padding": "valid", "data_format": "channels_last", "dilation_rate": [1, 1], "activation": "linear", "use_bias": true, "kernel_initializer": {"class_name": "RandomNormal", "config": {"mean": 0.0, "stddev": 0.05, "seed": null}}, "bias_initializer": {"class_name": "Zeros", "config": {}}, "kernel_regularizer": null, "bias_regularizer": null, "activity_regularizer": null, "kernel_constraint": null, "bias_constraint": null}}}, "inbound_nodes": [[["activation_144", 0, 0, {}]]]}, {"name": "bn5c_branch2a", "class_name": "TimeDistributed", "config": {"name": "bn5c_branch2a", "trainable": true, "layer": {"class_name": "FixedBatchNormalization", "config": {"name": "fixed_batch_normalization_28", "trainable": true, "epsilon": 0.001, "axis": 3, "gamma_regularizer": null, "beta_regularizer": null}}}, "inbound_nodes": [[["res5c_branch2a", 0, 0, {}]]]}, {"name": "activation_145", "class_name": "Activation", "config": {"name": "activation_145", "trainable": true, "activation": "relu"}, "inbound_nodes": [[["bn5c_branch2a", 0, 0, {}]]]}, {"name": "res5c_branch2b", "class_name": "TimeDistributed", "config": {"name": "res5c_branch2b", "trainable": true, "layer": {"class_name": "Conv2D", "config": {"name": "conv2d_29", "trainable": true, "filters": 512, "kernel_size": [3, 3], "strides": [1, 1], "padding": "same", "data_format": "channels_last", "dilation_rate": [1, 1], "activation": "linear", "use_bias": true, "kernel_initializer": {"class_name": "RandomNormal", "config": {"mean": 0.0, "stddev": 0.05, "seed": null}}, "bias_initializer": {"class_name": "Zeros", "config": {}}, "kernel_regularizer": null, "bias_regularizer": null, "activity_regularizer": null, "kernel_constraint": null, "bias_constraint": null}}}, "inbound_nodes": [[["activation_145", 0, 0, {}]]]}, {"name": "bn5c_branch2b", "class_name": "TimeDistributed", "config": {"name": "bn5c_branch2b", "trainable": true, "layer": {"class_name": "FixedBatchNormalization", "config": {"name": "fixed_batch_normalization_29", "trainable": true, "epsilon": 0.001, "axis": 3, "gamma_regularizer": null, "beta_regularizer": null}}}, "inbound_nodes": [[["res5c_branch2b", 0, 0, {}]]]}, {"name": "activation_146", "class_name": "Activation", "config": {"name": "activation_146", "trainable": true, "activation": "relu"}, "inbound_nodes": [[["bn5c_branch2b", 0, 0, {}]]]}, {"name": "res5c_branch2c", "class_name": "TimeDistributed", "config": {"name": "res5c_branch2c", "trainable": true, "layer": {"class_name": "Conv2D", "config": {"name": "conv2d_30", "trainable": true, "filters": 2048, "kernel_size": [1, 1], "strides": [1, 1], "padding": "valid", "data_format": "channels_last", "dilation_rate": [1, 1], "activation": "linear", "use_bias": true, "kernel_initializer": {"class_name": "RandomNormal", "config": {"mean": 0.0, "stddev": 0.05, "seed": null}}, "bias_initializer": {"class_name": "Zeros", "config": {}}, "kernel_regularizer": null, "bias_regularizer": null, "activity_regularizer": null, "kernel_constraint": null, "bias_constraint": null}}}, "inbound_nodes": [[["activation_146", 0, 0, {}]]]}, {"name": "bn5c_branch2c", "class_name": "TimeDistributed", "config": {"name": "bn5c_branch2c", "trainable": true, "layer": {"class_name": "FixedBatchNormalization", "config": {"name": "fixed_batch_normalization_30", "trainable": true, "epsilon": 0.001, "axis": 3, "gamma_regularizer": null, "beta_regularizer": null}}}, "inbound_nodes": [[["res5c_branch2c", 0, 0, {}]]]}, {"name": "add_48", "class_name": "Add", "config": {"name": "add_48", "trainable": true}, "inbound_nodes": [[["bn5c_branch2c", 0, 0, {}], ["activation_144", 0, 0, {}]]]}, {"name": "activation_147", "class_name": "Activation", "config": {"name": "activation_147", "trainable": true, "activation": "relu"}, "inbound_nodes": [[["add_48", 0, 0, {}]]]}, {"name": "avg_pool", "class_name": "TimeDistributed", "config": {"name": "avg_pool", "trainable": true, "layer": {"class_name": "AveragePooling2D", "config": {"name": "average_pooling2d_3", "trainable": true, "pool_size": [7, 7], "padding": "valid", "strides": [7, 7], "data_format": "channels_last"}}}, "inbound_nodes": [[["activation_147", 0, 0, {}]]]}, {"name": "rpn_conv1", "class_name": "Conv2D", "config": {"name": "rpn_conv1", "trainable": true, "filters": 512, "kernel_size": [3, 3], "strides": [1, 1], "padding": "same", "data_format": "channels_last", "dilation_rate": [1, 1], "activation": "relu", "use_bias": true, "kernel_initializer": {"class_name": "RandomNormal", "config": {"mean": 0.0, "stddev": 0.05, "seed": null}}, "bias_initializer": {"class_name": "Zeros", "config": {}}, "kernel_regularizer": null, "bias_regularizer": null, "activity_regularizer": null, "kernel_constraint": null, "bias_constraint": null}, "inbound_nodes": [[["activation_138", 0, 0, {}]]]}, {"name": "time_distributed_3", "class_name": "TimeDistributed", "config": {"name": "time_distributed_3", "trainable": true, "layer": {"class_name": "Flatten", "config": {"name": "flatten_3", "trainable": true}}}, "inbound_nodes": [[["avg_pool", 0, 0, {}]]]}, {"name": "rpn_out_class", "class_name": "Conv2D", "config": {"name": "rpn_out_class", "trainable": true, "filters": 9, "kernel_size": [1, 1], "strides": [1, 1], "padding": "valid", "data_format": "channels_last", "dilation_rate": [1, 1], "activation": "sigmoid", "use_bias": true, "kernel_initializer": {"class_name": "RandomUniform", "config": {"minval": -0.05, "maxval": 0.05, "seed": null}}, "bias_initializer": {"class_name": "Zeros", "config": {}}, "kernel_regularizer": null, "bias_regularizer": null, "activity_regularizer": null, "kernel_constraint": null, "bias_constraint": null}, "inbound_nodes": [[["rpn_conv1", 0, 0, {}]]]}, {"name": "rpn_out_regress", "class_name": "Conv2D", "config": {"name": "rpn_out_regress", "trainable": true, "filters": 36, "kernel_size": [1, 1], "strides": [1, 1], "padding": "valid", "data_format": "channels_last", "dilation_rate": [1, 1], "activation": "linear", "use_bias": true, "kernel_initializer": {"class_name": "Zeros", "config": {}}, "bias_initializer": {"class_name": "Zeros", "config": {}}, "kernel_regularizer": null, "bias_regularizer": null, "activity_regularizer": null, "kernel_constraint": null, "bias_constraint": null}, "inbound_nodes": [[["rpn_conv1", 0, 0, {}]]]}, {"name": "dense_class_2", "class_name": "TimeDistributed", "config": {"name": "dense_class_2", "trainable": true, "layer": {"class_name": "Dense", "config": {"name": "dense_5", "trainable": true, "units": 2, "activation": "softmax", "use_bias": true, "kernel_initializer": {"class_name": "Zeros", "config": {}}, "bias_initializer": {"class_name": "Zeros", "config": {}}, "kernel_regularizer": null, "bias_regularizer": null, "activity_regularizer": null, "kernel_constraint": null, "bias_constraint": null}}}, "inbound_nodes": [[["time_distributed_3", 0, 0, {}]]]}, {"name": "dense_regress_2", "class_name": "TimeDistributed", "config": {"name": "dense_regress_2", "trainable": true, "layer": {"class_name": "Dense", "config": {"name": "dense_6", "trainable": true, "units": 4, "activation": "linear", "use_bias": true, "kernel_initializer": {"class_name": "Zeros", "config": {}}, "bias_initializer": {"class_name": "Zeros", "config": {}}, "kernel_regularizer": null, "bias_regularizer": null, "activity_regularizer": null, "kernel_constraint": null, "bias_constraint": null}}}, "inbound_nodes": [[["time_distributed_3", 0, 0, {}]]]}], "input_layers": [["input_5", 0, 0], ["input_6", 0, 0]], "output_layers": [["rpn_out_class", 0, 0], ["rpn_out_regress", 0, 0], ["dense_class_2", 0, 0], ["dense_regress_2", 0, 0]]}}}, "weightsManifest": [{"paths": ["group1-shard1of28.bin", "group1-shard2of28.bin", "group1-shard3of28.bin", "group1-shard4of28.bin", "group1-shard5of28.bin", "group1-shard6of28.bin", "group1-shard7of28.bin", "group1-shard8of28.bin", "group1-shard9of28.bin", "group1-shard10of28.bin", "group1-shard11of28.bin", "group1-shard12of28.bin", "group1-shard13of28.bin", "group1-shard14of28.bin", "group1-shard15of28.bin", "group1-shard16of28.bin", "group1-shard17of28.bin", "group1-shard18of28.bin", "group1-shard19of28.bin", "group1-shard20of28.bin", "group1-shard21of28.bin", "group1-shard22of28.bin", "group1-shard23of28.bin", "group1-shard24of28.bin", "group1-shard25of28.bin", "group1-shard26of28.bin", "group1-shard27of28.bin", "group1-shard28of28.bin"], "weights": [{"name": "bn2a_branch1_2/bn2a_branch1_gamma", "shape": [256], "dtype": "float32"}, {"name": "bn2a_branch1_2/bn2a_branch1_beta", "shape": [256], "dtype": "float32"}, {"name": "bn2a_branch1_2/bn2a_branch1_running_mean", "shape": [256], "dtype": "float32"}, {"name": "bn2a_branch1_2/bn2a_branch1_running_std", "shape": [256], "dtype": "float32"}, {"name": "bn2a_branch2a_2/bn2a_branch2a_gamma", "shape": [64], "dtype": "float32"}, {"name": "bn2a_branch2a_2/bn2a_branch2a_beta", "shape": [64], "dtype": "float32"}, {"name": "bn2a_branch2a_2/bn2a_branch2a_running_mean", "shape": [64], "dtype": "float32"}, {"name": "bn2a_branch2a_2/bn2a_branch2a_running_std", "shape": [64], "dtype": "float32"}, {"name": "bn2a_branch2b_2/bn2a_branch2b_gamma", "shape": [64], "dtype": "float32"}, {"name": "bn2a_branch2b_2/bn2a_branch2b_beta", "shape": [64], "dtype": "float32"}, {"name": "bn2a_branch2b_2/bn2a_branch2b_running_mean", "shape": [64], "dtype": "float32"}, {"name": "bn2a_branch2b_2/bn2a_branch2b_running_std", "shape": [64], "dtype": "float32"}, {"name": "bn2a_branch2c_2/bn2a_branch2c_gamma", "shape": [256], "dtype": "float32"}, {"name": "bn2a_branch2c_2/bn2a_branch2c_beta", "shape": [256], "dtype": "float32"}, {"name": "bn2a_branch2c_2/bn2a_branch2c_running_mean", "shape": [256], "dtype": "float32"}, {"name": "bn2a_branch2c_2/bn2a_branch2c_running_std", "shape": [256], "dtype": "float32"}, {"name": "bn2b_branch2a_2/bn2b_branch2a_gamma", "shape": [64], "dtype": "float32"}, {"name": "bn2b_branch2a_2/bn2b_branch2a_beta", "shape": [64], "dtype": "float32"}, {"name": "bn2b_branch2a_2/bn2b_branch2a_running_mean", "shape": [64], "dtype": "float32"}, {"name": "bn2b_branch2a_2/bn2b_branch2a_running_std", "shape": [64], "dtype": "float32"}, {"name": "bn2b_branch2b_2/bn2b_branch2b_gamma", "shape": [64], "dtype": "float32"}, {"name": "bn2b_branch2b_2/bn2b_branch2b_beta", "shape": [64], "dtype": "float32"}, {"name": "bn2b_branch2b_2/bn2b_branch2b_running_mean", "shape": [64], "dtype": "float32"}, {"name": "bn2b_branch2b_2/bn2b_branch2b_running_std", "shape": [64], "dtype": "float32"}, {"name": "bn2b_branch2c_2/bn2b_branch2c_gamma", "shape": [256], "dtype": "float32"}, {"name": "bn2b_branch2c_2/bn2b_branch2c_beta", "shape": [256], "dtype": "float32"}, {"name": "bn2b_branch2c_2/bn2b_branch2c_running_mean", "shape": [256], "dtype": "float32"}, {"name": "bn2b_branch2c_2/bn2b_branch2c_running_std", "shape": [256], "dtype": "float32"}, {"name": "bn2c_branch2a_2/bn2c_branch2a_gamma", "shape": [64], "dtype": "float32"}, {"name": "bn2c_branch2a_2/bn2c_branch2a_beta", "shape": [64], "dtype": "float32"}, {"name": "bn2c_branch2a_2/bn2c_branch2a_running_mean", "shape": [64], "dtype": "float32"}, {"name": "bn2c_branch2a_2/bn2c_branch2a_running_std", "shape": [64], "dtype": "float32"}, {"name": "bn2c_branch2b_2/bn2c_branch2b_gamma", "shape": [64], "dtype": "float32"}, {"name": "bn2c_branch2b_2/bn2c_branch2b_beta", "shape": [64], "dtype": "float32"}, {"name": "bn2c_branch2b_2/bn2c_branch2b_running_mean", "shape": [64], "dtype": "float32"}, {"name": "bn2c_branch2b_2/bn2c_branch2b_running_std", "shape": [64], "dtype": "float32"}, {"name": "bn2c_branch2c_2/bn2c_branch2c_gamma", "shape": [256], "dtype": "float32"}, {"name": "bn2c_branch2c_2/bn2c_branch2c_beta", "shape": [256], "dtype": "float32"}, {"name": "bn2c_branch2c_2/bn2c_branch2c_running_mean", "shape": [256], "dtype": "float32"}, {"name": "bn2c_branch2c_2/bn2c_branch2c_running_std", "shape": [256], "dtype": "float32"}, {"name": "bn3a_branch1_2/bn3a_branch1_gamma", "shape": [512], "dtype": "float32"}, {"name": "bn3a_branch1_2/bn3a_branch1_beta", "shape": [512], "dtype": "float32"}, {"name": "bn3a_branch1_2/bn3a_branch1_running_mean", "shape": [512], "dtype": "float32"}, {"name": "bn3a_branch1_2/bn3a_branch1_running_std", "shape": [512], "dtype": "float32"}, {"name": "bn3a_branch2a_2/bn3a_branch2a_gamma", "shape": [128], "dtype": "float32"}, {"name": "bn3a_branch2a_2/bn3a_branch2a_beta", "shape": [128], "dtype": "float32"}, {"name": "bn3a_branch2a_2/bn3a_branch2a_running_mean", "shape": [128], "dtype": "float32"}, {"name": "bn3a_branch2a_2/bn3a_branch2a_running_std", "shape": [128], "dtype": "float32"}, {"name": "bn3a_branch2b_2/bn3a_branch2b_gamma", "shape": [128], "dtype": "float32"}, {"name": "bn3a_branch2b_2/bn3a_branch2b_beta", "shape": [128], "dtype": "float32"}, {"name": "bn3a_branch2b_2/bn3a_branch2b_running_mean", "shape": [128], "dtype": "float32"}, {"name": "bn3a_branch2b_2/bn3a_branch2b_running_std", "shape": [128], "dtype": "float32"}, {"name": "bn3a_branch2c_2/bn3a_branch2c_gamma", "shape": [512], "dtype": "float32"}, {"name": "bn3a_branch2c_2/bn3a_branch2c_beta", "shape": [512], "dtype": "float32"}, {"name": "bn3a_branch2c_2/bn3a_branch2c_running_mean", "shape": [512], "dtype": "float32"}, {"name": "bn3a_branch2c_2/bn3a_branch2c_running_std", "shape": [512], "dtype": "float32"}, {"name": "bn3b_branch2a_2/bn3b_branch2a_gamma", "shape": [128], "dtype": "float32"}, {"name": "bn3b_branch2a_2/bn3b_branch2a_beta", "shape": [128], "dtype": "float32"}, {"name": "bn3b_branch2a_2/bn3b_branch2a_running_mean", "shape": [128], "dtype": "float32"}, {"name": "bn3b_branch2a_2/bn3b_branch2a_running_std", "shape": [128], "dtype": "float32"}, {"name": "bn3b_branch2b_2/bn3b_branch2b_gamma", "shape": [128], "dtype": "float32"}, {"name": "bn3b_branch2b_2/bn3b_branch2b_beta", "shape": [128], "dtype": "float32"}, {"name": "bn3b_branch2b_2/bn3b_branch2b_running_mean", "shape": [128], "dtype": "float32"}, {"name": "bn3b_branch2b_2/bn3b_branch2b_running_std", "shape": [128], "dtype": "float32"}, {"name": "bn3b_branch2c_2/bn3b_branch2c_gamma", "shape": [512], "dtype": "float32"}, {"name": "bn3b_branch2c_2/bn3b_branch2c_beta", "shape": [512], "dtype": "float32"}, {"name": "bn3b_branch2c_2/bn3b_branch2c_running_mean", "shape": [512], "dtype": "float32"}, {"name": "bn3b_branch2c_2/bn3b_branch2c_running_std", "shape": [512], "dtype": "float32"}, {"name": "bn3c_branch2a_2/bn3c_branch2a_gamma", "shape": [128], "dtype": "float32"}, {"name": "bn3c_branch2a_2/bn3c_branch2a_beta", "shape": [128], "dtype": "float32"}, {"name": "bn3c_branch2a_2/bn3c_branch2a_running_mean", "shape": [128], "dtype": "float32"}, {"name": "bn3c_branch2a_2/bn3c_branch2a_running_std", "shape": [128], "dtype": "float32"}, {"name": "bn3c_branch2b_2/bn3c_branch2b_gamma", "shape": [128], "dtype": "float32"}, {"name": "bn3c_branch2b_2/bn3c_branch2b_beta", "shape": [128], "dtype": "float32"}, {"name": "bn3c_branch2b_2/bn3c_branch2b_running_mean", "shape": [128], "dtype": "float32"}, {"name": "bn3c_branch2b_2/bn3c_branch2b_running_std", "shape": [128], "dtype": "float32"}, {"name": "bn3c_branch2c_2/bn3c_branch2c_gamma", "shape": [512], "dtype": "float32"}, {"name": "bn3c_branch2c_2/bn3c_branch2c_beta", "shape": [512], "dtype": "float32"}, {"name": "bn3c_branch2c_2/bn3c_branch2c_running_mean", "shape": [512], "dtype": "float32"}, {"name": "bn3c_branch2c_2/bn3c_branch2c_running_std", "shape": [512], "dtype": "float32"}, {"name": "bn3d_branch2a_2/bn3d_branch2a_gamma", "shape": [128], "dtype": "float32"}, {"name": "bn3d_branch2a_2/bn3d_branch2a_beta", "shape": [128], "dtype": "float32"}, {"name": "bn3d_branch2a_2/bn3d_branch2a_running_mean", "shape": [128], "dtype": "float32"}, {"name": "bn3d_branch2a_2/bn3d_branch2a_running_std", "shape": [128], "dtype": "float32"}, {"name": "bn3d_branch2b_2/bn3d_branch2b_gamma", "shape": [128], "dtype": "float32"}, {"name": "bn3d_branch2b_2/bn3d_branch2b_beta", "shape": [128], "dtype": "float32"}, {"name": "bn3d_branch2b_2/bn3d_branch2b_running_mean", "shape": [128], "dtype": "float32"}, {"name": "bn3d_branch2b_2/bn3d_branch2b_running_std", "shape": [128], "dtype": "float32"}, {"name": "bn3d_branch2c_2/bn3d_branch2c_gamma", "shape": [512], "dtype": "float32"}, {"name": "bn3d_branch2c_2/bn3d_branch2c_beta", "shape": [512], "dtype": "float32"}, {"name": "bn3d_branch2c_2/bn3d_branch2c_running_mean", "shape": [512], "dtype": "float32"}, {"name": "bn3d_branch2c_2/bn3d_branch2c_running_std", "shape": [512], "dtype": "float32"}, {"name": "bn4a_branch1_2/bn4a_branch1_gamma", "shape": [1024], "dtype": "float32"}, {"name": "bn4a_branch1_2/bn4a_branch1_beta", "shape": [1024], "dtype": "float32"}, {"name": "bn4a_branch1_2/bn4a_branch1_running_mean", "shape": [1024], "dtype": "float32"}, {"name": "bn4a_branch1_2/bn4a_branch1_running_std", "shape": [1024], "dtype": "float32"}, {"name": "bn4a_branch2a_2/bn4a_branch2a_gamma", "shape": [256], "dtype": "float32"}, {"name": "bn4a_branch2a_2/bn4a_branch2a_beta", "shape": [256], "dtype": "float32"}, {"name": "bn4a_branch2a_2/bn4a_branch2a_running_mean", "shape": [256], "dtype": "float32"}, {"name": "bn4a_branch2a_2/bn4a_branch2a_running_std", "shape": [256], "dtype": "float32"}, {"name": "bn4a_branch2b_2/bn4a_branch2b_gamma", "shape": [256], "dtype": "float32"}, {"name": "bn4a_branch2b_2/bn4a_branch2b_beta", "shape": [256], "dtype": "float32"}, {"name": "bn4a_branch2b_2/bn4a_branch2b_running_mean", "shape": [256], "dtype": "float32"}, {"name": "bn4a_branch2b_2/bn4a_branch2b_running_std", "shape": [256], "dtype": "float32"}, {"name": "bn4a_branch2c_2/bn4a_branch2c_gamma", "shape": [1024], "dtype": "float32"}, {"name": "bn4a_branch2c_2/bn4a_branch2c_beta", "shape": [1024], "dtype": "float32"}, {"name": "bn4a_branch2c_2/bn4a_branch2c_running_mean", "shape": [1024], "dtype": "float32"}, {"name": "bn4a_branch2c_2/bn4a_branch2c_running_std", "shape": [1024], "dtype": "float32"}, {"name": "bn4b_branch2a_2/bn4b_branch2a_gamma", "shape": [256], "dtype": "float32"}, {"name": "bn4b_branch2a_2/bn4b_branch2a_beta", "shape": [256], "dtype": "float32"}, {"name": "bn4b_branch2a_2/bn4b_branch2a_running_mean", "shape": [256], "dtype": "float32"}, {"name": "bn4b_branch2a_2/bn4b_branch2a_running_std", "shape": [256], "dtype": "float32"}, {"name": "bn4b_branch2b_2/bn4b_branch2b_gamma", "shape": [256], "dtype": "float32"}, {"name": "bn4b_branch2b_2/bn4b_branch2b_beta", "shape": [256], "dtype": "float32"}, {"name": "bn4b_branch2b_2/bn4b_branch2b_running_mean", "shape": [256], "dtype": "float32"}, {"name": "bn4b_branch2b_2/bn4b_branch2b_running_std", "shape": [256], "dtype": "float32"}, {"name": "bn4b_branch2c_2/bn4b_branch2c_gamma", "shape": [1024], "dtype": "float32"}, {"name": "bn4b_branch2c_2/bn4b_branch2c_beta", "shape": [1024], "dtype": "float32"}, {"name": "bn4b_branch2c_2/bn4b_branch2c_running_mean", "shape": [1024], "dtype": "float32"}, {"name": "bn4b_branch2c_2/bn4b_branch2c_running_std", "shape": [1024], "dtype": "float32"}, {"name": "bn4c_branch2a_2/bn4c_branch2a_gamma", "shape": [256], "dtype": "float32"}, {"name": "bn4c_branch2a_2/bn4c_branch2a_beta", "shape": [256], "dtype": "float32"}, {"name": "bn4c_branch2a_2/bn4c_branch2a_running_mean", "shape": [256], "dtype": "float32"}, {"name": "bn4c_branch2a_2/bn4c_branch2a_running_std", "shape": [256], "dtype": "float32"}, {"name": "bn4c_branch2b_2/bn4c_branch2b_gamma", "shape": [256], "dtype": "float32"}, {"name": "bn4c_branch2b_2/bn4c_branch2b_beta", "shape": [256], "dtype": "float32"}, {"name": "bn4c_branch2b_2/bn4c_branch2b_running_mean", "shape": [256], "dtype": "float32"}, {"name": "bn4c_branch2b_2/bn4c_branch2b_running_std", "shape": [256], "dtype": "float32"}, {"name": "bn4c_branch2c_2/bn4c_branch2c_gamma", "shape": [1024], "dtype": "float32"}, {"name": "bn4c_branch2c_2/bn4c_branch2c_beta", "shape": [1024], "dtype": "float32"}, {"name": "bn4c_branch2c_2/bn4c_branch2c_running_mean", "shape": [1024], "dtype": "float32"}, {"name": "bn4c_branch2c_2/bn4c_branch2c_running_std", "shape": [1024], "dtype": "float32"}, {"name": "bn4d_branch2a_2/bn4d_branch2a_gamma", "shape": [256], "dtype": "float32"}, {"name": "bn4d_branch2a_2/bn4d_branch2a_beta", "shape": [256], "dtype": "float32"}, {"name": "bn4d_branch2a_2/bn4d_branch2a_running_mean", "shape": [256], "dtype": "float32"}, {"name": "bn4d_branch2a_2/bn4d_branch2a_running_std", "shape": [256], "dtype": "float32"}, {"name": "bn4d_branch2b_2/bn4d_branch2b_gamma", "shape": [256], "dtype": "float32"}, {"name": "bn4d_branch2b_2/bn4d_branch2b_beta", "shape": [256], "dtype": "float32"}, {"name": "bn4d_branch2b_2/bn4d_branch2b_running_mean", "shape": [256], "dtype": "float32"}, {"name": "bn4d_branch2b_2/bn4d_branch2b_running_std", "shape": [256], "dtype": "float32"}, {"name": "bn4d_branch2c_2/bn4d_branch2c_gamma", "shape": [1024], "dtype": "float32"}, {"name": "bn4d_branch2c_2/bn4d_branch2c_beta", "shape": [1024], "dtype": "float32"}, {"name": "bn4d_branch2c_2/bn4d_branch2c_running_mean", "shape": [1024], "dtype": "float32"}, {"name": "bn4d_branch2c_2/bn4d_branch2c_running_std", "shape": [1024], "dtype": "float32"}, {"name": "bn4e_branch2a_2/bn4e_branch2a_gamma", "shape": [256], "dtype": "float32"}, {"name": "bn4e_branch2a_2/bn4e_branch2a_beta", "shape": [256], "dtype": "float32"}, {"name": "bn4e_branch2a_2/bn4e_branch2a_running_mean", "shape": [256], "dtype": "float32"}, {"name": "bn4e_branch2a_2/bn4e_branch2a_running_std", "shape": [256], "dtype": "float32"}, {"name": "bn4e_branch2b_2/bn4e_branch2b_gamma", "shape": [256], "dtype": "float32"}, {"name": "bn4e_branch2b_2/bn4e_branch2b_beta", "shape": [256], "dtype": "float32"}, {"name": "bn4e_branch2b_2/bn4e_branch2b_running_mean", "shape": [256], "dtype": "float32"}, {"name": "bn4e_branch2b_2/bn4e_branch2b_running_std", "shape": [256], "dtype": "float32"}, {"name": "bn4e_branch2c_2/bn4e_branch2c_gamma", "shape": [1024], "dtype": "float32"}, {"name": "bn4e_branch2c_2/bn4e_branch2c_beta", "shape": [1024], "dtype": "float32"}, {"name": "bn4e_branch2c_2/bn4e_branch2c_running_mean", "shape": [1024], "dtype": "float32"}, {"name": "bn4e_branch2c_2/bn4e_branch2c_running_std", "shape": [1024], "dtype": "float32"}, {"name": "bn4f_branch2a_2/bn4f_branch2a_gamma", "shape": [256], "dtype": "float32"}, {"name": "bn4f_branch2a_2/bn4f_branch2a_beta", "shape": [256], "dtype": "float32"}, {"name": "bn4f_branch2a_2/bn4f_branch2a_running_mean", "shape": [256], "dtype": "float32"}, {"name": "bn4f_branch2a_2/bn4f_branch2a_running_std", "shape": [256], "dtype": "float32"}, {"name": "bn4f_branch2b_2/bn4f_branch2b_gamma", "shape": [256], "dtype": "float32"}, {"name": "bn4f_branch2b_2/bn4f_branch2b_beta", "shape": [256], "dtype": "float32"}, {"name": "bn4f_branch2b_2/bn4f_branch2b_running_mean", "shape": [256], "dtype": "float32"}, {"name": "bn4f_branch2b_2/bn4f_branch2b_running_std", "shape": [256], "dtype": "float32"}, {"name": "bn4f_branch2c_2/bn4f_branch2c_gamma", "shape": [1024], "dtype": "float32"}, {"name": "bn4f_branch2c_2/bn4f_branch2c_beta", "shape": [1024], "dtype": "float32"}, {"name": "bn4f_branch2c_2/bn4f_branch2c_running_mean", "shape": [1024], "dtype": "float32"}, {"name": "bn4f_branch2c_2/bn4f_branch2c_running_std", "shape": [1024], "dtype": "float32"}, {"name": "bn5a_branch1_2/fixed_batch_normalization_24_gamma", "shape": [2048], "dtype": "float32"}, {"name": "bn5a_branch1_2/fixed_batch_normalization_24_beta", "shape": [2048], "dtype": "float32"}, {"name": "bn5a_branch1_2/fixed_batch_normalization_24_running_mean", "shape": [2048], "dtype": "float32"}, {"name": "bn5a_branch1_2/fixed_batch_normalization_24_running_std", "shape": [2048], "dtype": "float32"}, {"name": "bn5a_branch2a_2/fixed_batch_normalization_21_gamma", "shape": [512], "dtype": "float32"}, {"name": "bn5a_branch2a_2/fixed_batch_normalization_21_beta", "shape": [512], "dtype": "float32"}, {"name": "bn5a_branch2a_2/fixed_batch_normalization_21_running_mean", "shape": [512], "dtype": "float32"}, {"name": "bn5a_branch2a_2/fixed_batch_normalization_21_running_std", "shape": [512], "dtype": "float32"}, {"name": "bn5a_branch2b_2/fixed_batch_normalization_22_gamma", "shape": [512], "dtype": "float32"}, {"name": "bn5a_branch2b_2/fixed_batch_normalization_22_beta", "shape": [512], "dtype": "float32"}, {"name": "bn5a_branch2b_2/fixed_batch_normalization_22_running_mean", "shape": [512], "dtype": "float32"}, {"name": "bn5a_branch2b_2/fixed_batch_normalization_22_running_std", "shape": [512], "dtype": "float32"}, {"name": "bn5a_branch2c_2/fixed_batch_normalization_23_gamma", "shape": [2048], "dtype": "float32"}, {"name": "bn5a_branch2c_2/fixed_batch_normalization_23_beta", "shape": [2048], "dtype": "float32"}, {"name": "bn5a_branch2c_2/fixed_batch_normalization_23_running_mean", "shape": [2048], "dtype": "float32"}, {"name": "bn5a_branch2c_2/fixed_batch_normalization_23_running_std", "shape": [2048], "dtype": "float32"}, {"name": "bn5b_branch2a_2/fixed_batch_normalization_25_gamma", "shape": [512], "dtype": "float32"}, {"name": "bn5b_branch2a_2/fixed_batch_normalization_25_beta", "shape": [512], "dtype": "float32"}, {"name": "bn5b_branch2a_2/fixed_batch_normalization_25_running_mean", "shape": [512], "dtype": "float32"}, {"name": "bn5b_branch2a_2/fixed_batch_normalization_25_running_std", "shape": [512], "dtype": "float32"}, {"name": "bn5b_branch2b_2/fixed_batch_normalization_26_gamma", "shape": [512], "dtype": "float32"}, {"name": "bn5b_branch2b_2/fixed_batch_normalization_26_beta", "shape": [512], "dtype": "float32"}, {"name": "bn5b_branch2b_2/fixed_batch_normalization_26_running_mean", "shape": [512], "dtype": "float32"}, {"name": "bn5b_branch2b_2/fixed_batch_normalization_26_running_std", "shape": [512], "dtype": "float32"}, {"name": "bn5b_branch2c_2/fixed_batch_normalization_27_gamma", "shape": [2048], "dtype": "float32"}, {"name": "bn5b_branch2c_2/fixed_batch_normalization_27_beta", "shape": [2048], "dtype": "float32"}, {"name": "bn5b_branch2c_2/fixed_batch_normalization_27_running_mean", "shape": [2048], "dtype": "float32"}, {"name": "bn5b_branch2c_2/fixed_batch_normalization_27_running_std", "shape": [2048], "dtype": "float32"}, {"name": "bn5c_branch2a_2/fixed_batch_normalization_28_gamma", "shape": [512], "dtype": "float32"}, {"name": "bn5c_branch2a_2/fixed_batch_normalization_28_beta", "shape": [512], "dtype": "float32"}, {"name": "bn5c_branch2a_2/fixed_batch_normalization_28_running_mean", "shape": [512], "dtype": "float32"}, {"name": "bn5c_branch2a_2/fixed_batch_normalization_28_running_std", "shape": [512], "dtype": "float32"}, {"name": "bn5c_branch2b_2/fixed_batch_normalization_29_gamma", "shape": [512], "dtype": "float32"}, {"name": "bn5c_branch2b_2/fixed_batch_normalization_29_beta", "shape": [512], "dtype": "float32"}, {"name": "bn5c_branch2b_2/fixed_batch_normalization_29_running_mean", "shape": [512], "dtype": "float32"}, {"name": "bn5c_branch2b_2/fixed_batch_normalization_29_running_std", "shape": [512], "dtype": "float32"}, {"name": "bn5c_branch2c_2/fixed_batch_normalization_30_gamma", "shape": [2048], "dtype": "float32"}, {"name": "bn5c_branch2c_2/fixed_batch_normalization_30_beta", "shape": [2048], "dtype": "float32"}, {"name": "bn5c_branch2c_2/fixed_batch_normalization_30_running_mean", "shape": [2048], "dtype": "float32"}, {"name": "bn5c_branch2c_2/fixed_batch_normalization_30_running_std", "shape": [2048], "dtype": "float32"}, {"name": "bn_conv1_2/bn_conv1_gamma", "shape": [64], "dtype": "float32"}, {"name": "bn_conv1_2/bn_conv1_beta", "shape": [64], "dtype": "float32"}, {"name": "bn_conv1_2/bn_conv1_running_mean", "shape": [64], "dtype": "float32"}, {"name": "bn_conv1_2/bn_conv1_running_std", "shape": [64], "dtype": "float32"}, {"name": "conv1_2/kernel", "shape": [7, 7, 3, 64], "dtype": "float32"}, {"name": "conv1_2/bias", "shape": [64], "dtype": "float32"}, {"name": "dense_class_2_2/kernel", "shape": [2048, 2], "dtype": "float32"}, {"name": "dense_class_2_2/bias", "shape": [2], "dtype": "float32"}, {"name": "dense_regress_2_2/kernel", "shape": [2048, 4], "dtype": "float32"}, {"name": "dense_regress_2_2/bias", "shape": [4], "dtype": "float32"}, {"name": "res2a_branch1_2/kernel", "shape": [1, 1, 64, 256], "dtype": "float32"}, {"name": "res2a_branch1_2/bias", "shape": [256], "dtype": "float32"}, {"name": "res2a_branch2a_2/kernel", "shape": [1, 1, 64, 64], "dtype": "float32"}, {"name": "res2a_branch2a_2/bias", "shape": [64], "dtype": "float32"}, {"name": "res2a_branch2b_2/kernel", "shape": [3, 3, 64, 64], "dtype": "float32"}, {"name": "res2a_branch2b_2/bias", "shape": [64], "dtype": "float32"}, {"name": "res2a_branch2c_2/kernel", "shape": [1, 1, 64, 256], "dtype": "float32"}, {"name": "res2a_branch2c_2/bias", "shape": [256], "dtype": "float32"}, {"name": "res2b_branch2a_2/kernel", "shape": [1, 1, 256, 64], "dtype": "float32"}, {"name": "res2b_branch2a_2/bias", "shape": [64], "dtype": "float32"}, {"name": "res2b_branch2b_2/kernel", "shape": [3, 3, 64, 64], "dtype": "float32"}, {"name": "res2b_branch2b_2/bias", "shape": [64], "dtype": "float32"}, {"name": "res2b_branch2c_2/kernel", "shape": [1, 1, 64, 256], "dtype": "float32"}, {"name": "res2b_branch2c_2/bias", "shape": [256], "dtype": "float32"}, {"name": "res2c_branch2a_2/kernel", "shape": [1, 1, 256, 64], "dtype": "float32"}, {"name": "res2c_branch2a_2/bias", "shape": [64], "dtype": "float32"}, {"name": "res2c_branch2b_2/kernel", "shape": [3, 3, 64, 64], "dtype": "float32"}, {"name": "res2c_branch2b_2/bias", "shape": [64], "dtype": "float32"}, {"name": "res2c_branch2c_2/kernel", "shape": [1, 1, 64, 256], "dtype": "float32"}, {"name": "res2c_branch2c_2/bias", "shape": [256], "dtype": "float32"}, {"name": "res3a_branch1_2/kernel", "shape": [1, 1, 256, 512], "dtype": "float32"}, {"name": "res3a_branch1_2/bias", "shape": [512], "dtype": "float32"}, {"name": "res3a_branch2a_2/kernel", "shape": [1, 1, 256, 128], "dtype": "float32"}, {"name": "res3a_branch2a_2/bias", "shape": [128], "dtype": "float32"}, {"name": "res3a_branch2b_2/kernel", "shape": [3, 3, 128, 128], "dtype": "float32"}, {"name": "res3a_branch2b_2/bias", "shape": [128], "dtype": "float32"}, {"name": "res3a_branch2c_2/kernel", "shape": [1, 1, 128, 512], "dtype": "float32"}, {"name": "res3a_branch2c_2/bias", "shape": [512], "dtype": "float32"}, {"name": "res3b_branch2a_2/kernel", "shape": [1, 1, 512, 128], "dtype": "float32"}, {"name": "res3b_branch2a_2/bias", "shape": [128], "dtype": "float32"}, {"name": "res3b_branch2b_2/kernel", "shape": [3, 3, 128, 128], "dtype": "float32"}, {"name": "res3b_branch2b_2/bias", "shape": [128], "dtype": "float32"}, {"name": "res3b_branch2c_2/kernel", "shape": [1, 1, 128, 512], "dtype": "float32"}, {"name": "res3b_branch2c_2/bias", "shape": [512], "dtype": "float32"}, {"name": "res3c_branch2a_2/kernel", "shape": [1, 1, 512, 128], "dtype": "float32"}, {"name": "res3c_branch2a_2/bias", "shape": [128], "dtype": "float32"}, {"name": "res3c_branch2b_2/kernel", "shape": [3, 3, 128, 128], "dtype": "float32"}, {"name": "res3c_branch2b_2/bias", "shape": [128], "dtype": "float32"}, {"name": "res3c_branch2c_2/kernel", "shape": [1, 1, 128, 512], "dtype": "float32"}, {"name": "res3c_branch2c_2/bias", "shape": [512], "dtype": "float32"}, {"name": "res3d_branch2a_2/kernel", "shape": [1, 1, 512, 128], "dtype": "float32"}, {"name": "res3d_branch2a_2/bias", "shape": [128], "dtype": "float32"}, {"name": "res3d_branch2b_2/kernel", "shape": [3, 3, 128, 128], "dtype": "float32"}, {"name": "res3d_branch2b_2/bias", "shape": [128], "dtype": "float32"}, {"name": "res3d_branch2c_2/kernel", "shape": [1, 1, 128, 512], "dtype": "float32"}, {"name": "res3d_branch2c_2/bias", "shape": [512], "dtype": "float32"}, {"name": "res4a_branch1_2/kernel", "shape": [1, 1, 512, 1024], "dtype": "float32"}, {"name": "res4a_branch1_2/bias", "shape": [1024], "dtype": "float32"}, {"name": "res4a_branch2a_2/kernel", "shape": [1, 1, 512, 256], "dtype": "float32"}, {"name": "res4a_branch2a_2/bias", "shape": [256], "dtype": "float32"}, {"name": "res4a_branch2b_2/kernel", "shape": [3, 3, 256, 256], "dtype": "float32"}, {"name": "res4a_branch2b_2/bias", "shape": [256], "dtype": "float32"}, {"name": "res4a_branch2c_2/kernel", "shape": [1, 1, 256, 1024], "dtype": "float32"}, {"name": "res4a_branch2c_2/bias", "shape": [1024], "dtype": "float32"}, {"name": "res4b_branch2a_2/kernel", "shape": [1, 1, 1024, 256], "dtype": "float32"}, {"name": "res4b_branch2a_2/bias", "shape": [256], "dtype": "float32"}, {"name": "res4b_branch2b_2/kernel", "shape": [3, 3, 256, 256], "dtype": "float32"}, {"name": "res4b_branch2b_2/bias", "shape": [256], "dtype": "float32"}, {"name": "res4b_branch2c_2/kernel", "shape": [1, 1, 256, 1024], "dtype": "float32"}, {"name": "res4b_branch2c_2/bias", "shape": [1024], "dtype": "float32"}, {"name": "res4c_branch2a_2/kernel", "shape": [1, 1, 1024, 256], "dtype": "float32"}, {"name": "res4c_branch2a_2/bias", "shape": [256], "dtype": "float32"}, {"name": "res4c_branch2b_2/kernel", "shape": [3, 3, 256, 256], "dtype": "float32"}, {"name": "res4c_branch2b_2/bias", "shape": [256], "dtype": "float32"}, {"name": "res4c_branch2c_2/kernel", "shape": [1, 1, 256, 1024], "dtype": "float32"}, {"name": "res4c_branch2c_2/bias", "shape": [1024], "dtype": "float32"}, {"name": "res4d_branch2a_2/kernel", "shape": [1, 1, 1024, 256], "dtype": "float32"}, {"name": "res4d_branch2a_2/bias", "shape": [256], "dtype": "float32"}, {"name": "res4d_branch2b_2/kernel", "shape": [3, 3, 256, 256], "dtype": "float32"}, {"name": "res4d_branch2b_2/bias", "shape": [256], "dtype": "float32"}, {"name": "res4d_branch2c_2/kernel", "shape": [1, 1, 256, 1024], "dtype": "float32"}, {"name": "res4d_branch2c_2/bias", "shape": [1024], "dtype": "float32"}, {"name": "res4e_branch2a_2/kernel", "shape": [1, 1, 1024, 256], "dtype": "float32"}, {"name": "res4e_branch2a_2/bias", "shape": [256], "dtype": "float32"}, {"name": "res4e_branch2b_2/kernel", "shape": [3, 3, 256, 256], "dtype": "float32"}, {"name": "res4e_branch2b_2/bias", "shape": [256], "dtype": "float32"}, {"name": "res4e_branch2c_2/kernel", "shape": [1, 1, 256, 1024], "dtype": "float32"}, {"name": "res4e_branch2c_2/bias", "shape": [1024], "dtype": "float32"}, {"name": "res4f_branch2a_2/kernel", "shape": [1, 1, 1024, 256], "dtype": "float32"}, {"name": "res4f_branch2a_2/bias", "shape": [256], "dtype": "float32"}, {"name": "res4f_branch2b_2/kernel", "shape": [3, 3, 256, 256], "dtype": "float32"}, {"name": "res4f_branch2b_2/bias", "shape": [256], "dtype": "float32"}, {"name": "res4f_branch2c_2/kernel", "shape": [1, 1, 256, 1024], "dtype": "float32"}, {"name": "res4f_branch2c_2/bias", "shape": [1024], "dtype": "float32"}, {"name": "res5a_branch1_2/kernel", "shape": [1, 1, 1024, 2048], "dtype": "float32"}, {"name": "res5a_branch1_2/bias", "shape": [2048], "dtype": "float32"}, {"name": "res5a_branch2a_2/kernel", "shape": [1, 1, 1024, 512], "dtype": "float32"}, {"name": "res5a_branch2a_2/bias", "shape": [512], "dtype": "float32"}, {"name": "res5a_branch2b_2/kernel", "shape": [3, 3, 512, 512], "dtype": "float32"}, {"name": "res5a_branch2b_2/bias", "shape": [512], "dtype": "float32"}, {"name": "res5a_branch2c_2/kernel", "shape": [1, 1, 512, 2048], "dtype": "float32"}, {"name": "res5a_branch2c_2/bias", "shape": [2048], "dtype": "float32"}, {"name": "res5b_branch2a_2/kernel", "shape": [1, 1, 2048, 512], "dtype": "float32"}, {"name": "res5b_branch2a_2/bias", "shape": [512], "dtype": "float32"}, {"name": "res5b_branch2b_2/kernel", "shape": [3, 3, 512, 512], "dtype": "float32"}, {"name": "res5b_branch2b_2/bias", "shape": [512], "dtype": "float32"}, {"name": "res5b_branch2c_2/kernel", "shape": [1, 1, 512, 2048], "dtype": "float32"}, {"name": "res5b_branch2c_2/bias", "shape": [2048], "dtype": "float32"}, {"name": "res5c_branch2a_2/kernel", "shape": [1, 1, 2048, 512], "dtype": "float32"}, {"name": "res5c_branch2a_2/bias", "shape": [512], "dtype": "float32"}, {"name": "res5c_branch2b_2/kernel", "shape": [3, 3, 512, 512], "dtype": "float32"}, {"name": "res5c_branch2b_2/bias", "shape": [512], "dtype": "float32"}, {"name": "res5c_branch2c_2/kernel", "shape": [1, 1, 512, 2048], "dtype": "float32"}, {"name": "res5c_branch2c_2/bias", "shape": [2048], "dtype": "float32"}, {"name": "rpn_conv1_2/kernel", "shape": [3, 3, 1024, 512], "dtype": "float32"}, {"name": "rpn_conv1_2/bias", "shape": [512], "dtype": "float32"}, {"name": "rpn_out_class_2/kernel", "shape": [1, 1, 512, 9], "dtype": "float32"}, {"name": "rpn_out_class_2/bias", "shape": [9], "dtype": "float32"}, {"name": "rpn_out_regress_2/kernel", "shape": [1, 1, 512, 36], "dtype": "float32"}, {"name": "rpn_out_regress_2/bias", "shape": [36], "dtype": "float32"}]}]}